outputs_transformer/transformer_best.pt (torch, 315208 bytes, 30 tensors)

pos_encoder f4 [1, 100, 64]
00000000: 958f 54be 2890 623d 11a9 b0c0 274e fc3c
00000010: c278 473e e17b 8a3e cfcd 9fbf e756 633e
00000020: 7128 053d 807c 0f3d 79ec 20be cc21 7d3f
00000030: 4ac6 b7bd 41f3 883e 8014 ee3f 1e5e 14be
00000040: 99a8 34bf bbbf 713d cab8 483d 9a2b 423f
00000050: 50c4 503d eec7 8c3d 1155 423d 09ad 89bd
00000060: 86f0 9d3c ba59 353e 325a 21be e979 b63d
00000070: d95f 56be 6749 c13d 324c b03f 5562 a8bd
00000080: 8de7 8cbc b59f cabd d0d4 153e 476d c1be
00000090: f9d4 353e 6980 e6bd d237 23be 7a16 503f
000000a0: c8cd 8abd ca77 8540 6837 193f a371 df3d
000000b0: 70af 553d 7fea 60be c559 873b 9f35 19be
000000c0: 812e 283d 7683 d93c 6136 0dc0 a7e0 bb3d
000000d0: a30f 9c3f b561 933e bd0b 2cbd f455 e13c
000000e0: 0768 2cbc b8a2 7c3d 2161 a1bc 0b2f 0d3e
000000f0: 6e5b 8e3d 983a 94be d68b 083e 0f44 d13d
00000100: cffe 3cbe 2e59 543d ad8c f2bf 4345 4c3e
00000110: 0dea a83d 45e7 023d a2c2 6b3f 583c 0b3d
00000120: e956 d1bd bcad 003c ef76 b13d de81 4fbf
00000130: a241 c6bc ed24 cf3e 7c8b b8bf fbef 04bd
00000140: 9772 673e 24c9 4b3e 2b61 b5bd f4c2 dabe
00000150: b54c 1c3d 289d 42be f2bd 93bd b530 be3c
00000160: 71f1 773e e76b f93d c83c 18bb f1eb 49bd
00000170: f154 3abe e1c4 9bbd 137a 72bf eaac a9bc
00000180: dc97 81bd e9a5 2abe 3d9b 96be ad16 ae3e
00000190: 579b 53bd 8c4f 2fbd 64af 003e 2fd6 ac3f
000001a0: 8f0b 35bd dea7 b43e f5b9 e13e 3bc8 073e
000001b0: baa6 333d 9d33 5d3e 4565 88bd 3b48 f83c
000001c0: ba71 eb3e 396f 253d 48ed bdbf 3ecf 0b3e
000001d0: 6555 c0bf 2876 013e e960 b03d 3db1 4b3e
000001e0: d703 ec3c 3fb4 e03c e8ee 543d 1dfd 963d
000001f0: 37fd 9f3d 7719 3f3f d48b 553c 7295 ca3b
00000200: a467 093d eb2c 753d b896 26bd 7652 d43e
00000210: 3ce6 3a3e 5d14 8cbe 2bce 433f df35 d8be
00000220: 56ba 833d 1f11 ad3c 4484 47bd 9212 0ebf
00000230: 5d64 10bd 0fbd a43e 2c45 99be 791b b53d
00000240: 7f73 173e a139 523e bfed a7bd 6bbe 9b3d
00000250: 57c6 4fbe 4455 d2be 7dab 90bb 3d0e 55bc
00000260: 2b7e dfbd caad a1bd ea11 a43d 0404 56bd
00000270: 92cc 8c3d 744c 313d 4b4e 60be 5ebb fcbb
00000280: 516d fe3c 7ada a9bd cdcb cabd 2515 fa3d
00000290: 338c 153c d208 003c 3bb4 613e 1c17 bfbf
000002a0: a075 d2be 1a91 23c0 00dc 6d3e 217e 9b3d
000002b0: 2fab 76bd d981 8b3e d967 903c 7aa5 fcbc
000002c0: 1f99 ad3e 71a7 f3bd 579b 953f 4f08 be3d
000002d0: c138 a63e 78c0 123e 9244 39bd 6d6c 523d
000002e0: 832d ee3d 81bc 973d 4c09 273d a789 ddbb
000002f0: 44fc 19bd c582 bcbe 105f 10bd 2390 893d
00000300: 0000 0000 0000 0000 0000 0000 0000 0000
00000310: 0000 0000 0000 0000 0000 0000 0000 0000
00000320: 0000 0000 0000 0000 0000 0000 0000 0000
00000330: 0000 0000 0000 0000 0000 0000 0000 0000
00000340: 0000 0000 0000 0000 0000 0000 0000 0000
00000350: 0000 0000 0000 0000 0000 0000 0000 0000
00000360: 0000 0000 0000 0000 0000 0000 0000 0000
00000370: 0000 0000 0000 0000 0000 0000 0000 0000
00000380: 0000 0000 0000 0000 0000 0000 0000 0000
00000390: 0000 0000 0000 0000 0000 0000 0000 0000
000003a0: 0000 0000 0000 0000 0000 0000 0000 0000
000003b0: 0000 0000 0000 0000 0000 0000 0000 0000
000003c0: 0000 0000 0000 0000 0000 0000 0000 0000
000003d0: 0000 0000 0000 0000 0000 0000 0000 0000
000003e0: 0000 0000 0000 0000 0000 0000 0000 0000
000003f0: 0000 0000 0000 0000 0000 0000 0000 0000
-0.20757897 0.05531326 -5.520638 0.030798985 0.19479659 0.27047637 -1.2484683 0.2220112
0.03250927 0.03503084 -0.15715207 0.98879695 -0.089733675 0.26748088 1.8600006 -0.14489028
-0.7056976 0.05902074 0.049004354 0.7584778 0.05096847 0.06874071 0.047444407 -0.06722457
0.01927973 0.17710009 -0.15757063 0.08909971 -0.20935 0.094378285 1.3773253 -0.0822188
-0.017200256 -0.09893743 0.14631963 -0.37778684 0.17757024 -0.11254961 -0.15939263 0.81284297
-0.06777531 4.1708727 0.5985017 0.10910346 0.052169263 -0.21964453 0.0041305744 -0.14961861
0.041059975 0.026551943 -2.206444 0.091737084 1.2192272 0.28785482 -0.042003382 0.027506806
-0.010522849 0.06167862 -0.019699635 0.13787477 0.069510326 -0.28950953 0.13334593 0.10218059
-0.18456577 0.05184286 -1.8949181 0.19948296 0.08247767 0.031958837 0.9209386 0.033993095
-0.10221655 0.0078539215 0.08665263 -0.81057537 -0.024201218 0.4045786 -1.4417567 -0.032455426
0.22602306 0.19900948 -0.08856424 -0.42726862 0.03815909 -0.19005263 -0.072139636 0.023216585
0.24213196 0.12178784 -0.0023229588 -0.049297277 -0.18196465 -0.07605911 -0.9471752 -0.020712335
-0.06327793 -0.16664852 -0.29415312 0.34001675 -0.051661815 -0.04280047 0.12566906 1.3502864
-0.044200476 0.35284323 0.44087186 0.13259976 0.043860175 0.2160172 -0.06659941 0.03030788
0.45985204 0.040389273 -1.4838037 0.13653275 -1.502606 0.1264273 0.08612234 0.1989183
0.028810425 0.027429698 0.05198565 0.07372496 0.07811969 0.7464823 0.013033826 0.006182366
0.033546105 0.05985729 -0.04067108 0.41469163 0.1825189 -0.27359286 0.7648646 -0.422286
0.06432025 0.021126328 -0.048710123 -0.55497086 -0.035251964 0.3217549 -0.29935586 0.088431306
0.14790152 0.20529796 -0.08199643 0.07604679 -0.20290504 -0.41080678 -0.0044149742 -0.013003883
-0.109127365 -0.07894476 0.08011229 -0.052249923 0.06874956 0.043285802 -0.21904866 -0.0077127656
0.031057985 -0.08293624 -0.09902153 0.12211064 0.009127664 0.007814603 0.22041409 -1.4928927
-0.41105366 -2.5557313 0.23228455 0.075924166 -0.060221847 0.27247503 0.017627643 -0.030840624
0.33905885 -0.11897171 1.1688031 0.092789285 0.32465175 0.14331234 -0.04523141 0.051372934
0.116297744 0.07409001 0.04078035 -0.006760794 -0.037594095 -0.3681852 -0.03524691 0.06716945
0.0 0.0 0.0 0.0 0.0 0.0 0.0 0.0
0.0 0.0 0.0 0.0 0.0 0.0 0.0 0.0
0.0 0.0 0.0 0.0 0.0 0.0 0.0 0.0
0.0 0.0 0.0 0.0 0.0 0.0 0.0 0.0
0.0 0.0 0.0 0.0 0.0 0.0 0.0 0.0
0.0 0.0 0.0 0.0 0.0 0.0 0.0 0.0
0.0 0.0 0.0 0.0 0.0 0.0 0.0 0.0
0.0 0.0 0.0 0.0 0.0 0.0 0.0 0.0

embedding.weight f4 [64, 9]
00000000: be34 84bd 292a 933d 43eb 4dbc 9ef7 e33c
00000010: 9f1d 143d 736d 9a3d a0b0 e13b 8f56 a03c
00000020: 8c15 c93d fc20 b53d 455c 4bbb f365 78bd
00000030: 834a fa3b 9921 f2bc 482c e13c 0973 f5bb
00000040: c42f c23d 9f22 cc3d c37e 19be eef1 383d
00000050: 1fcb 093e 9fbc 033e 5be2 2e3d 37a0 d3bc
00000060: f300 f43c ec4d 22bc 6460 c3bc e9c8 82be
00000070: db65 273f 3028 ca3c a01d a13f 36b0 8e3e
00000080: 5011 8fbf df1b 3cbd 6dda 15be 89cb b33f
00000090: 3f15 153c 90e9 783c 3cd8 b1bc 8eeb 70bd
000000a0: 6f52 a3bd a3a8 1a3d 4986 50bc b39e 5ebe
000000b0: 66bf d43d 65ef 543c 2865 613d 10a3 443d
000000c0: 0bd2 d8be 77c2 57be cc5e 84bc f3ba d73d
000000d0: 4e23 e83d 973b c63d bb96 76bc d501 103e
000000e0: fd2b 023e 754d e5bd ae7a 1dbe aec9 263e
000000f0: aa2e 9fbd 0849 09bf 9874 eb3d 112e 093e
00000100: faa8 c7bd 963f c9bc 5266 5f3e 733f 5f3e
00000110: 2dfa 583e ced9 ba3c d438 453e 04ad 8abe
00000120: 8a43 5cbe dc01 403d d791 223d d8d6 993c
00000130: d003 4b3e 4fb0 273d 5db2 bdbd a444 263d
00000140: 2432 81bd 295b 733d 173c 3f3e e390 63bd
00000150: 8e52 ba3b 6dba a7bd 8ecc df3d ffdb 9cbc
00000160: 4b25 c3bd f931 de3c 21bf 13bc b879 1c3e
00000170: ec8b 303c aeb6 cd39 e522 7f3d a2ad 253e
00000180: e0ad 9fbd b3e3 613e 173f 253c 8771 a23e
00000190: 848d f63d 76ba 06be 478c 7cbf 8225 75be
000001a0: 5113 e3be 5215 1c3d b55f 98bf 139c 4fbe
000001b0: 0555 12be de80 213e 6fb8 253d 8b78 423e
000001c0: 2ba2 0b3e e76a 35be 7809 b73c 6101 273d
000001d0: 9d5e 79be 6863 973d 8ab7 c8bd 4989 63bc
000001e0: 8c9f 38bf e31d 793e 7b4a f43e a05b 703c
000001f0: 1e76 d63c 9041 1cbf 4669 49be 1095 da3d
00000200: b66d d03e f2ca 37bd 54a5 bb3d 6c5b 4c3e
00000210: 8754 443e ceab 093f 035a 233e 3441 b83d
00000220: 58b4 433d 4016 94bb 686b 653b 17bf 34bc
00000230: d13b 9d3d 15b6 19be f552 503d b887 053d
00000240: 4915 173d da37 93bd bacd 323e 274c 06bf
00000250: ce28 b1bd 2ea0 aabe 3b5d 033e a21f 973e
00000260: cc06 6fbe aa30 923d e911 fe3d 1ab9 2d3d
00000270: 5fba 09bd f950 edbd e7d4 633e f64f 353d
00000280: 0da6 13be f240 263d b8ae babd b28e 4bbb
00000290: 4db7 63bc d801 14be 03d8 373d 2353 c03d
000002a0: 03f0 5e3d f9f9 54bd ea13 8e3e eaa0 de3d
000002b0: 4e3b 50be 8f3c 03bf b4e3 ac3e 7069 043e
000002c0: fabb 3e3d ebac 9fbd cf63 c23e 8c9d 8a3d
000002d0: 004e 183e 0aaa fa3c 1c02 ee39 ac49 3fbe
000002e0: e8bd 04be 3c34 593e a4f7 49bd 7358 2cbd
000002f0: a930 473d 1638 883d 7cf2 c43d ea78 053e
00000300: e01b b2be f570 b1bd 6f8b 3ebe 707b 1c3e
00000310: 06e8 1f3e 1c8b f6be dfc1 433d 88f9 65be
00000320: 4f85 273b ab1a 9ebd 70e6 61be 8ddb 1abe
00000330: 0089 063e 2f87 37be 0e2d 983d 38cf c4bc
00000340: 65ba 563e 5878 003c 9b00 66bd c149 c1ba
00000350: a1d0 733e 55c0 e0bd 6ca7 54bc 0ef2 0d3e
00000360: c974 b3bd be62 50be 3860 933c 6490 22be
00000370: 2a0a a03a 7e9c 81be a491 143d 65e2 72bd
00000380: 3134 ef3c 21e6 99bd a34c 61bd aeba 8c3c
00000390: 5b63 9cbe a07f e33c 18ba 383e 4610 b63d
000003a0: f63b dfbd 3140 4a3e 9598 84be 3e31 44bd
000003b0: 28b9 44bd ee7b 463e 00aa 993e 892c d5bd
000003c0: 0a5c 34be 9241 7abd 1ecd abbb 1b41 0f3e
000003d0: 8c13 903a 8e8b 6abd 498c 3dbd 4fca f1bd
000003e0: b5c0 af3d 910d b4bd f1b5 203d 3aca 3c3e
000003f0: 6595 60be 663c 183d c9b1 c03b 2245 b8bb
-0.06455372 0.07185776 -0.012568298 0.027828034 0.03616106 0.07540407 0.0068875104 0.019572524
0.09818563 0.08844182 -0.0031030339 -0.0606441 0.007638277 -0.029557036 0.027486935 -0.00749052
0.09481767 0.09967541 -0.14989762 0.045152597 0.13456391 0.12864922 0.04269634 -0.025833232
0.029785609 -0.009906273 -0.023849674 -0.25543907 0.65389794 0.024677366 1.2587166 0.27868813
-1.1177158 -0.045925017 -0.14634104 1.4046489 0.009099304 0.015192404 -0.021709554 -0.058818392
-0.07974707 0.03775848 -0.012727329 -0.21740226 0.10388069 0.012996529 0.05502811 0.04800707
-0.4234775 -0.21070276 -0.016158484 0.105337046 0.11334859 0.096793346 -0.015050585 0.14063199
0.12712093 -0.111964144 -0.1537883 0.16287872 -0.07772572 -0.5362706 0.11496848 0.13396479
-0.097490266 -0.024566453 0.21816376 0.21801548 0.21189184 0.022808935 0.1925996 -0.27085125
-0.21510139 0.046876773 0.039689865 0.018779203 0.19825673 0.040939625 -0.09262536 0.040592805
-0.06308392 0.05941311 0.18675266 -0.055558097 0.005686111 -0.08189855 0.109276876 -0.019147871
-0.095285974 0.027123438 -0.009017737 0.15280807 0.0107755475 0.00039236754 0.062289137 0.16179517
-0.07796836 0.22059517 0.010085843 0.3172724 0.12038711 -0.13157067 -0.98651546 -0.2394009
-0.44350675 0.03810627 -1.1904207 -0.20274381 -0.14290245 0.15771815 0.040459093 0.18991296
0.13636081 -0.17716561 0.022343382 0.0407728 -0.24352498 0.07392007 -0.09800632 -0.013887712
-0.7211845 0.24327807 0.47713074 0.014670283 0.02617937 -0.6103754 -0.19669065 0.10672963
0.40708703 -0.044871278 0.09162393 0.1995675 0.1917287 0.5377778 0.15952305 0.089968115
0.04777941 -0.004519254 0.0035006646 -0.0110318875 0.07677425 -0.15010865 0.050860364 0.032600135
0.036885533 -0.07188387 0.17461291 -0.5245995 -0.08650361 -0.33325332 0.12828533 0.2951632
-0.23342437 0.07138188 0.1240576 0.042412855 -0.033625003 -0.1158771 0.22249185 0.04426571
-0.14418812 0.04058928 -0.09115356 -0.0031060395 -0.013898683 -0.14453828 0.04488374 0.09390857
0.05442811 -0.051996205 0.27749568 0.10870536 -0.20335123 -0.5126428 0.33767474 0.12930846
0.046565987 -0.07796653 0.37966773 0.06768331 0.14873505 0.030598659 0.0004539647 -0.18680447
-0.12963068 0.21211332 -0.049308434 -0.04207654 0.04863039 0.066513225 0.09616563 0.13034406
-0.34786892 -0.08664123 -0.18607877 0.15281463 0.15615854 -0.48153007 0.04779231 -0.2245847
0.0025561636 -0.0771993 -0.22060561 -0.15122814 0.13138199 -0.17922662 0.074304685 -0.02402459
0.20969541 0.007841192 -0.05615292 -0.0014746712 0.23810054 -0.109741844 -0.01297937 0.13861868
-0.087625094 -0.20350167 0.017990217 -0.15875393 0.001221006 -0.25314707 0.036271706 -0.059297938
0.029199691 -0.07514597 -0.055004727 0.01717886 -0.30544552 0.027770817 0.18039739 0.08889823
-0.109001085 0.1975105 -0.2589766 -0.047898524 -0.04802814 0.19383213 0.30012512 -0.10408885
-0.17613235 -0.06109769 -0.0052429577 0.1398968 0.0010992154 -0.057261996 -0.046276364 -0.118061654
0.08581678 -0.0879165 0.039236013 0.18436518 -0.2193199 0.037166975 0.0058805686 -0.0056234756

embedding.bias f4 [64]
00000000: 752d 7dbc 777c c23a c313 f1bf 8469 ba3e
00000010: de1a 28bc 0395 8ebd 82fb 233f 797c 2abe
00000020: acf1 f13c 49f6 5b3d 4ad4 ba3b 9eab 26bf
00000030: fe20 fc3c 3b93 2b3f e7e4 54be 51f8 c6bc
00000040: 94df 77be 416a f43c a8a5 d13c 2040 703d
00000050: d909 89bd eca3 2ebe 8558 5ebd f851 083d
00000060: 4085 cfbd d5f1 8bbd 2cb2 023e 94de d63d
00000070: f481 de3d d051 843d cf2a d7bd 04f4 853d
00000080: ec8d b03d 59d1 603c a0be c53d e7bd 65bd
00000090: 76c7 20bd f198 243e c6c8 243d f54a 65bd
000000a0: 77e2 b3bd dbeb c83e 0490 483f ff1a cf3c
000000b0: 681d 313b 6d1e 2a3e 510b f53d 8503 fe3c
000000c0: f1b7 343f e02e 13be 75c1 3fbf c9ed 7dbd
000000d0: d2bf e3ba 9ed5 b53e 2375 493b 5d50 e1bc
000000e0: 2ad6 b53d b664 0bbc 7fce b23d a1c1 85bc
000000f0: 223d 6abd 8979 eb3d b32e 53bd 0869 ffbb
-0.015452732 0.0014838119 -1.8834156 0.36408627 -0.010260312 -0.069620155 0.64055645 -0.16649045
0.029534183 0.053701673 0.0057015764 -0.6510562 0.03077745 0.6702153 -0.20790444 -0.024288328
-0.24206382 0.029835822 0.025591686 0.058654904 -0.066913314 -0.17054719 -0.054283638 0.033281296
-0.10132837 -0.06833235 0.1276328 0.10491672 0.1086463 0.06460917 -0.10506212 0.06540683
0.086208194 0.013721787 0.096554995 -0.056089308 -0.03925272 0.16073968 0.040230535 -0.055979688
-0.08783429 0.39242443 0.7834475 0.025281427 0.0027025584 0.16613169 0.11965049 0.031007538
0.7059317 -0.1437335 -0.74904567 -0.061994348 -0.0017375892 0.3551454 0.0030739985 -0.02750414
0.08878739 -0.008507898 0.08730792 -0.016327681 -0.057187207 0.1149779 -0.051558208 -0.007794503

transformer_encoder.layers.0.self_attn.in_proj_weight f4 [192, 64]
00000000: 561b 143d 4107 b4bd 3552 20bf 0d93 dc3e
00000010: 3ad2 093e 0923 003f 01a0 5b3f 2232 43bf
00000020: 0f04 453d 8cdd 6e3e 76c3 a6be 8603 133b
00000030: d3a4 893e d301 1f3d cae7 0abf d6ac d1be
00000040: 6a2f 33be 7541 953e e074 343e 2416 ffbe
00000050: 9714 94bd 3843 10bf 8a53 123f 6ab5 8ebe
00000060: f4af 893e 5f91 9b3e 6bc7 36be 8ea2 81be
00000070: be08 c8be 617b 713e 31b3 69bf e256 5bbe
00000080: d6d2 20bf 5a4e 793e 1794 02bd c083 723e
00000090: d73d 7fbe ae72 65bd 4a65 a4be 983d b03d
000000a0: 789b 65bd 0629 ce3e 8475 f73d 5692 2c3e
000000b0: e367 0b3f 93a7 123e 634e ab3d 0e01 acbe
000000c0: acdf 403f fc2c 153f de46 ecbe a2fc c13e
000000d0: 1a4d 9c3e ba2f 253e cc9e c43e ff47 623c
000000e0: 0433 683d b586 27be cd31 0e3d 63fe 053f
000000f0: 6f42 b0bb d894 bf3d 4cdb 4abc a647 883c
00000100: d7ec b93e 3e7f 033f ab01 883e b5cd 0fbf
00000110: d19e 12bf 958d 1bbd 0251 81be 48e7 723e
00000120: 7735 3b3e a587 c5bd b0cc 733e f717 13bd
00000130: 9245 8b3c 88b1 493e 2f03 183f 1a50 583c
00000140: efb8 06bf 0931 bebe 6a8d c3bd 11c2 e7bd
00000150: 9d9e 96be d2a8 dfbe 60fe bebe 06e0 483c
00000160: 39e0 35be 71a2 0cbf df8a a53e f554 3c3f
00000170: ca6b 793f e387 81be 3d19 ab3e bbda c0be
00000180: 3303 103f 782c 0539 bb08 f2bc cdd3 fbbe
00000190: 277a 113d c65b 4abe f095 253e 96bf 65bb
000001a0: 7c6d 5bbe a78e cf3d 69f4 c63c 40aa 483e
000001b0: 93f1 49be 04c2 763e c605 923e d384 8f3e
000001c0: 1aac 7a3e 8d8c f8be 7380 343f eaa0 afbe
000001d0: 464e 99be d996 973e 9c77 10bd 2225 0b3e
000001e0: 0bbc 0c3c 779b d3be 7450 b0bd 08b5 13bf
000001f0: 8abd dc3c f93f 31bd 1338 423e df54 df3e
00000200: b1dd 443d a29c 0a3d 687c 3ebe c4ac 213f
00000210: bb33 1fbe ddba 2a3e 0424 f33e 8570 bbbe
00000220: cc56 bebd 7246 bfbc 835c 0dbe 096a f0be
00000230: d052 f8bc 33cc d5be 591e f6be 33d6 27be
00000240: ae90 e3bd 4537 60be 5806 47be 1aab bfbe
00000250: d680 103e 416c 8bbe 3815 e3bc fc9b 843e
00000260: 92d7 5c3e a6e0 f0bb 71c2 883e 73f0 f63e
00000270: 73c2 443d 26b1 243e 9154 dbbe 2de7 23be
00000280: 4dce 13bd ad8f 003e 2204 ac3c b7c9 323e
00000290: 914b 73bd 3071 79be c9b5 883d 147b 863e
000002a0: 5793 a6be e39f 3abe 6648 91be 9a27 79be
000002b0: 6e6e 3d3d 3028 c13d 484b 9f3d d628 31bd
000002c0: 1bfa 0c3f 76eb 6f3d 31ab 3bbe 1ae3 06bb
000002d0: 54b5 f8be 0bfc f33c f991 5f3d 05bf af3a
000002e0: 274c d1be 1c9f 1bbe 69cc b53d 19f2 b3be
000002f0: 906a ab3d 5259 e53e 784d ab3e ae86 f23e
00000300: 6731 e6bd 4fd2 abbe 59ed eebd e0a0 0f3f
00000310: ed9a 2e3e 8e26 053d bc4a 263f db41 bdbe
00000320: 66e9 083e 956c 56bd 154a dfbe e9da eabd
00000330: a0a9 a5bc 7576 98be a89d 18bf d735 9cbd
00000340: d158 f93d eb3a 2c3e 6d8a 8fbd c9a4 3dbe
00000350: 4fd4 e93e 430f bdbd 7f96 8a3e d4cc 403d
00000360: aca0 503e b6d6 7b3e 26e7 c1bd ad85 aebe
00000370: 4115 79be dc09 283d 0e53 debe 4738 003e
00000380: aea4 3e3d 79a2 b93e 2653 503e b457 c63e
00000390: 948f 8ebd 8f3b 96be 2070 643d 17bc f83c
000003a0: bf7b 2fbd aa68 5ebe 4dc4 44be c258 ebbe
000003b0: 1452 8c3c 3ee9 b73d 559b 80be 7781 b33d
000003c0: 748b 803e a52f 683d c51d aabe 526b ae3e
000003d0: 09f6 91be a060 783c 32f6 6a3e 06f9 16be
000003e0: 6f77 41be 5d2e 7a3e b0c1 683d f1aa fcbd
000003f0: 713d 09be da8c d93e c5fa 813e 1d92 063d
0.036158882 -0.08790446 -0.6262544 0.4308094 0.13459101 0.5005346 0.8579102 -0.7624837
0.048099574 0.23326701 -0.32571 0.002243252 0.26883563 0.0388201 -0.5425993 -0.40952176
-0.17498556 0.29151502 0.1762271 -0.4982158 -0.0723049 -0.5635257 0.5715872 -0.27872783
0.26892054 0.30384347 -0.1784951 -0.25319332 -0.3906917 0.23582222 -0.9128905 -0.21419862
-0.6282171 0.24346295 -0.03187951 0.23683071 -0.24925934 -0.05601757 -0.32108527 0.08605498
-0.05605647 0.40265673 0.12082961 0.16852698 0.54455394 0.14321737 0.083645605 -0.33594555
0.75341296 0.58271766 -0.46147817 0.37888056 0.30527574 0.16131487 0.38402402 0.0138111105
0.056689277 -0.1635998 0.034715462 0.5234129 -0.0053790133 0.093545616 -0.012381386 0.016635727
0.36313507 0.5136603 0.26563773 -0.5617326 -0.57273585 -0.03797682 -0.25257117 0.2372104
0.18282114 -0.09645013 0.23808551 -0.035911527 0.017000947 0.19696629 0.5937986 0.013202691
-0.52625936 -0.37146786 -0.09548457 -0.11316312 -0.29417887 -0.43683487 -0.37303448 0.012260443
-0.17761315 -0.54935366 0.32332513 0.73567134 0.974301 -0.25298986 0.33417693 -0.37666878
0.5625488 0.00012700434 -0.029545179 -0.4918503 0.035516884 -0.19761571 0.16170478 -0.003505682
-0.21428484 0.10134631 0.024286466 0.19596195 -0.1972106 0.24097449 0.2852003 0.28031024
0.24479714 -0.48544732 0.705085 -0.34302455 -0.2994253 0.29607275 -0.03527032 0.13588384
0.008589755 -0.41329548 -0.08609095 -0.57698107 0.026945848 -0.0432739 0.18966703 0.4361944
0.048062984 0.033840783 -0.18602145 0.63154244 -0.15547077 0.16672845 0.47488415 -0.36609283
-0.09293899 -0.02334902 -0.13804822 -0.46955898 -0.030312926 -0.41757354 -0.48070028 -0.16390304
-0.1111158 -0.21896084 -0.19436014 -0.37435228 0.14111647 -0.2723103 -0.027720079 0.25900257
0.21566609 -0.007350999 0.26710847 0.48230323 0.048037004 0.16083202 -0.42837957 -0.16006155
-0.036085416 0.12554808 0.020998064 0.1745976 -0.059398238 -0.24359584 0.06675298 0.26265776
-0.32534286 -0.18225054 -0.28375548 -0.24331513 0.046247892 0.09431493 0.07778031 -0.043251835
0.5506913 0.058574162 -0.18327023 -0.002058214 -0.48575842 0.02978327 0.05458257 0.0013408369
-0.40878412 -0.15197414 0.08876879 -0.35145643 0.083699346 0.44794708 0.3345754 0.47368377
-0.112398915 -0.3355889 -0.11666364 0.5610485 0.17051287 0.03250747 0.64957786 -0.36964306
0.13370284 -0.052349646 -0.43611208 -0.11467535 -0.020222485 -0.29777876 -0.59615564 -0.07627457
0.121751435 0.1681935 -0.070088245 -0.18519892 0.4566979 -0.092314266 0.27067944 0.04707034
0.20373791 0.24593624 -0.09467916 -0.34086362 -0.24324514 0.041025028 -0.4342274 0.12521468
0.04654377 0.3625677 0.20344219 0.38738787 -0.06960979 -0.29342315 0.055770993 0.030363126
-0.042842623 -0.21719614 -0.19215508 -0.45966154 0.017128982 0.08980034 -0.2511851 0.08764928
0.25106394 0.056686062 -0.33225837 0.34066254 -0.28508022 0.015159756 0.22945479 -0.14743432
-0.18893217 0.24431749 0.05682534 -0.12337292 -0.13402344 0.42490274 0.25386634 0.03285419

transformer_encoder.layers.0.self_attn.in_proj_bias f4 [192]
00000000: bd99 343f 242b 86be f66b 563e 40cb 853e
00000010: 31c9 2d3f ec8a b83e a6f0 6bbe 8ede 27bf
00000020: efa5 61be e0b5 d43e 0d01 08bf dcf5 20bf
00000030: 52f8 253f 170c 1ebe d754 1a3f 23b2 50bf
00000040: 91be b33e 3e64 05be f69d bbbe 4664 7d3e
00000050: ce3f 353e 0a3f 9abe 8525 bcbe dcac 94be
00000060: 7099 b4bc f1e2 5c3d 9f37 7ebe 4244 8a3e
00000070: 4c62 543e fa95 93be 922c 133d 94e4 afbe
00000080: 4b59 193f 73f5 413f effa c83e 34d7 e1be
00000090: a6b2 1d3f 3d89 2e3f 5989 eaba 7017 2a3f
000000a0: 9ab9 1bbf f3d9 313f 3877 3bbf 3b55 953c
000000b0: 9457 d0be b918 2cbf 9056 0c3f e975 c0be
000000c0: ed43 1fbf 2de1 4f3e 60a5 873e 765f 79be
000000d0: ed80 623d 036c 39be a34e 7cbe 0517 0c3f
000000e0: 4052 b73d 875f 313f 6a76 11bf aac0 29bf
000000f0: e5a3 19bf d585 cb3e cc93 d93e 30f3 35bf
00000100: 7694 f53d 2df1 75bd 58a7 503e 9fc7 0a3e
00000110: 3e01 243d fa2f 8abe a0a6 873e 6caa 123e
00000120: 1a09 bd3d 643d 83be 1cb4 ef3c 11f5 0c3e
00000130: fde3 d03d 4f48 8d3e 7467 6cbd f9ae 8b3e
00000140: 4b22 8abe 054e 3b3e 2dc2 5b3e d8c4 a6bd
00000150: 0092 5cbd df1e 583e 68c0 113e 3178 553e
00000160: 3dc9 cb3d 0b5e e7bc 4862 b13d 66ff abbd
00000170: 6d9b b53c 974f 243e b8a0 3bbd a02e ab3d
00000180: 34d3 b4bd fe99 9c3c 2f8a f3bd db22 3dbd
00000190: 94ed 5bbd a8bd a23b 0ade f33c 6a5d 52bd
000001a0: e2ef 7c3d eda2 bfbd 0f89 7a3d aa69 ae3c
000001b0: 2296 d1bd 272f f23c 2b5d 78bd e19d adbd
000001c0: 7c63 273d c19c 0cbe f96b edbc 872f ddbb
000001d0: 2206 bbbc 28cd 70be 1f43 163d 65c7 103d
000001e0: 1c9c 183e 916e e3bd 74b7 e3bd 33f4 d23d
000001f0: 5bce 0d3e 3003 983d 3300 b23b 16dd 9f3d
00000200: a46a 5a3c 2174 813d a490 ab3c 3a4c c43c
00000210: 945d e5bd 59d3 87bd 7bc9 92bd c45c 303e
00000220: f81a 16bd 22d3 b83d f258 02be 99c7 653d
00000230: 9616 343d 600f 1d3d c5d9 c7bd 7fa5 15be
00000240: 84a1 7b3b 8611 383d 1e66 dabd 620c 33bc
00000250: fa77 7e3d 837a 0bbd a028 d13c e657 1a3d
00000260: 7ffe 2d3d 7640 6c3d 8486 bebb 02af 343e
00000270: d2f8 433d fc82 59bc 9aaa 0ebd 9940 123d
00000280: 5554 07bd 1a3f 8dbd 5900 62bd 0386 223d
00000290: b90c d1bc b9bd 3ebd aa9c cfbd 315e 2dbd
000002a0: 2f2f f0bc b00b 68bd 5bdb 2dbd 5152 8f3d
000002b0: 575c 1d3d 2efd 4e3d a25f fc3c 9ee7 c03d
000002c0: 9d10 103d 6704 10bc 8dd7 9f3c 5eec c9bb
000002d0: 3b73 2d3c a0e1 26bc 0ff9 6b3d 7ddf 77bd
000002e0: 814e 8a3e 66cc 103c cde4 a23d 5586 293c
000002f0: bc6d 78bd c6ce 9f3c 7b7e 103d 6495 bbbb
0.70547086 -0.2620479 0.20939621 0.2613163 0.6788512 0.3604349 -0.23041019 -0.65573967
-0.22035955 0.4154501 -0.53126603 -0.6287515 0.6483203 -0.154343 0.60285705 -0.81521815
0.35106328 -0.1302652 -0.36643952 0.24745283 0.17700121 -0.3012622 -0.36747375 -0.2903813
-0.022045821 0.053927366 -0.24825905 0.27005202 0.20740622 -0.2882536 0.035931177 -0.3435408
0.59901875 0.7576515 0.39253947 -0.441095 0.6160072 0.6817816 -0.0017893716 0.6644201
-0.6083008 0.6947319 -0.7322879 0.018229118 -0.40691817 -0.67225224 0.54819584 -0.37589958
-0.6221302 0.20300741 0.2649336 -0.24352822 0.055298734 -0.1810761 -0.24639373 0.54722625
0.08951235 0.6928639 -0.5682131 -0.6630961 -0.6001571 0.39750543 0.42495573 -0.710742
0.11991207 -0.060044456 0.20376337 0.13552712 0.040040247 -0.26989728 0.26494312 0.14322823
0.092302516 -0.25632775 0.029260688 0.1376536 0.10199735 0.2759423 -0.057715848 0.2728193
-0.26979288 0.18291481 0.21460791 -0.08143014 -0.053850174 0.21105526 0.14233553 0.2084663
0.099504925 -0.028243085 0.08661324 -0.08398323 0.02216884 0.16045986 -0.04580757 0.083585024
-0.08829346 0.019116398 -0.11891591 -0.04617582 -0.05369337 0.0049664564 0.029768962 -0.051358618
0.061752208 -0.093572475 0.061165866 0.021290619 -0.10233714 0.0295635 -0.060635727 -0.08477379
0.04086636 -0.13731672 -0.02898215 -0.0067500505 -0.022830073 -0.23515761 0.036685105 0.035346407
0.14903301 -0.11105073 -0.11118975 0.103004836 0.1384825 0.07422483 0.0054321527 0.07805841
0.013331089 0.06320978 0.020942993 0.023962129 -0.11199489 -0.06632108 -0.071673356 0.17222887
-0.036646813 0.090246454 -0.12729242 0.056098554 0.043966852 0.03834474 -0.09758333 -0.14613913
0.0038395831 0.044938587 -0.106640086 -0.010928245 0.062126137 -0.034052383 0.025532067 0.037681483
0.042479035 0.057678662 -0.0058143754 0.17644885 0.047844715 -0.013275858 -0.034830667 0.035706136
-0.03303941 -0.06896801 -0.055176113 0.039678585 -0.025518762 -0.046567652 -0.10137303 -0.042326156
-0.029319374 -0.05665177 -0.04244552 0.069981225 0.03841814 0.05053442 0.03080732 0.094191775
0.035172094 -0.008790112 0.019511962 -0.0061622104 0.010586555 -0.010185629 0.057610568 -0.06051587
0.2701302 0.008837795 0.079537965 0.010346969 -0.060651526 0.019507777 0.03527687 -0.005724596

transformer_encoder.layers.0.self_attn.out_proj.weight f4 [64, 64]
00000000: 9e77 353c 2a30 6ebd c5b8 893d 5b90 b73d
00000010: 0e56 963e e2be 3ebd 68c2 8ebd 2b3e ffbd
00000020: 479f 0c3e b227 733d 11a3 54bd 0f86 14be
00000030: 10de 54bd b760 33be d4cf 123e 2019 993e
00000040: 5a11 bdbd a6ab 1e3e cf18 c63d ff0c 483e
00000050: bbcd fb3c 8327 a1bd 01bd 9ebe 40a1 a3bb
00000060: 81ac 27be 014b b03d e9e0 0d3e 68ec eb3c
00000070: fc61 3abe 1529 82be 0c19 283e 7510 133e
00000080: c68c 44bd ca0b 04bd e559 ab3c ef18 1abe
00000090: 9f4b 953d 63a6 24be bcdd 89bd 1a31 1ebe
000000a0: 2280 423c 9855 06be 137d 99bc 6b68 43bc
000000b0: eddb ae3d c9d9 183d 87c1 623e 8cdc 50bd
000000c0: 6239 03bf 90b5 a0bd fe43 9fbe eff4 b23e
000000d0: d0fe 58bd 8106 a73a 2dd3 3cbe 5224 17bd
000000e0: bbc0 9ebe c8c2 503d 8a0a 273d ab97 493c
000000f0: a8bb 673c 2d01 babd 9fff 9dbe 7576 94be
00000100: b8c3 3c3c 1603 1abe 83c3 16be 9bad 1a3e
00000110: 9be5 223e 74c8 5a3e bfe3 6dbd 9f96 d43c
00000120: 5b30 623d ab22 6a3d f587 18bd ce61 183e
00000130: e6c2 26be ef66 d2bc be83 72be 6af9 413d
00000140: 79d1 62be 5943 263e 9dc0 3a3c 4cec f63d
00000150: cf98 403d 9212 aa3d 08ad f43b a475 55bd
00000160: 1afe b2bd b938 483e 83da 8c3d 2259 f33d
00000170: cd34 28be 32f3 81be 26c4 9b3d 418c b8bd
00000180: 6501 d4bd e971 9d3e 8d43 183d 28a6 85bd
00000190: c868 d43d 0a00 303e 4a7d 3e3e 7c5d 4c3e
000001a0: 5d9e a1be 27b6 a9bc facb fa3d 1c24 db3e
000001b0: b5b1 1bbe f18c 153e a1ec 203e 57ce 733e
000001c0: d5d6 df3d 6128 c03d 5be4 053e 1884 2d3c
000001d0: fefe 7cbd e203 91bd ac89 3e3d 5456 12be
000001e0: 34a2 543e 8b0b e83c 8515 71bd 8572 953d
000001f0: cfd0 4d3e f41c 493e 3f2e 0e3e 42f7 493e
00000200: deca a03b c7db 34bc e46e 223b 0138 02b8
00000210: b82b 263c ab0f 463c 60f5 813b 72bf 493b
00000220: ff0a cd3a faa5 a53b f2c1 68bc e0af 76bb
00000230: c0e4 11bc c621 31bc dcc3 c1bb 5f3b 903c
00000240: 7e5c bc3b fdb4 86bc d37a 1e3c e2f0 9ebb
00000250: c83a 04bc 8728 12bb 0326 e03a 7de1 c53b
00000260: 2ad8 443c 06a4 e6bc 7f34 27bc da71 ed3b
00000270: 36a7 0dbc e174 2d3c c141 06bc a7d4 cebc
00000280: 9e33 093c 9d4c 993b d856 90bb 9b34 7e3c
00000290: 36f6 9c3b 02eb 2e3c 4603 0a3c 20e1 a03b
000002a0: 43ee 9e3a 5b79 8f3a 8d26 5e3b d2a0 793b
000002b0: 7049 bbbb 6c77 923c fe4f f1bb 3db0 9ebc
000002c0: 3957 93bc 1dea 893c 4e27 75bc 3b1b 9c3b
000002d0: 7736 a2bc fb1d fb3b 836f c3bc 862d 293c
000002e0: 4213 a4bc a89b 913c 403f 213c 5de7 3c3c
000002f0: d41c 9dbc 7f55 143a d445 abbc 9d8f 653c
00000300: 16ee a1bb 277b 223b fb9f 1ebc f882 5f3b
00000310: 9590 e83a 4f63 98bb 5e84 43bc a135 143c
00000320: 761b 22bc 7244 70b8 4565 2f3a a557 393c
00000330: 18de f9bb dfd1 663b 4e69 c7bb a2b4 eabc
00000340: e0df d2ba 66e1 063b 403f 27bc 5529 9bbc
00000350: f362 013c 66ea 3e3c c632 dcbb 234a 68bb
00000360: 2f5f 503a b78d 15ba c19f 9e3b 3126 fa3b
00000370: 3c9c e83b 7358 62bc 3ea5 58bb 2c05 a63c
00000380: 3441 34bc b1e1 bebb a692 163b 5e76 563b
00000390: 7808 a6ba 5881 e33b 1bb9 02bc 5b7b 85bc
000003a0: 6138 b9bb 04b3 d63b fcf4 4ebc 45cf dcba
000003b0: 5dc8 0d3c 57e6 babb b659 773b 4ef2 b53b
000003c0: b418 bebc 5aee bbbc c6a9 37bb 6c2b 71bc
000003d0: d51a a7ba 9130 793b 46bc ce3b 1896 7dbc
000003e0: 8a9a fb3b d759 4cbc 0f61 2a3c 80df 84bc
000003f0: 7a5c 3dbd 3476 8d3c 8d37 3fbc 3379 00bd
0.011075882 -0.0581514 0.06724695 0.089630805 0.2936253 -0.04656876 -0.06970674 -0.124630295
0.13732634 0.05936403 -0.051913325 -0.14504264 -0.051969588 -0.17517363 0.14337093 0.2990198
-0.09231825 0.15495166 0.096727006 0.19536208 0.030737748 -0.078688644 -0.31003574 -0.0049935877
-0.16374399 0.08608056 0.13855328 0.02879925 -0.1820144 -0.25421968 0.16415805 0.14361747
-0.047985815 -0.032237805 0.020916888 -0.15048574 0.07289814 -0.16079096 -0.067317456 -0.15448418
0.01187137 -0.13118589 -0.018736398 -0.011926751 0.08538041 0.03731707 0.22144137 -0.05099158
-0.51259434 -0.0784713 -0.3110656 0.34952495 -0.052977383 0.0012743027 -0.18439932 -0.036899872
-0.31006417 0.050967008 0.040781535 0.012304227 0.014143862 -0.090822555 -0.30859086 -0.28996626
0.011521272 -0.1504024 -0.1472302 0.15105288 0.159079 0.2136553 -0.058078524 0.025950728
0.055221897 0.05716197 -0.037239034 0.1488106 -0.16285285 -0.025683848 -0.23683068 0.047357
-0.2215022 0.16236629 0.011398462 0.12056789 0.04702073 0.08304323 0.007466916 -0.052114144
-0.08739872 0.19552888 0.06877615 0.11882235 -0.16426392 -0.25380856 0.07605772 -0.09011126
-0.103518285 0.3075097 0.037173796 -0.065258324 0.10371548 0.17187515 0.18602481 0.19957536
-0.31566134 -0.02071674 0.12245937 0.42800987 -0.15204509 0.14604546 0.15715267 0.23809181
0.10929648 0.09382702 0.13075392 0.010590576 -0.061766617 -0.07080819 0.046518013 -0.14290744
0.20765 0.028325817 -0.058858413 0.072972335 0.20099185 0.19639951 0.13884829 0.19723228
0.004906996 -0.011038727 0.0024785334 -3.1046573e-05 0.010142259 0.0120886965 0.0039660186 0.0030784276
0.0015643536 0.0050551863 -0.014206396 -0.003764145 -0.008904636 -0.010811275 -0.005913241 0.017606435
0.0057483306 -0.016443724 0.009672838 -0.004850493 -0.008070655 -0.0022301988 0.0017101172 0.006038843
0.012014428 -0.028154384 -0.010205387 0.007246238 -0.008645823 0.010586948 -0.008194388 -0.025247885
0.008374123 0.0046783225 -0.004404884 0.015515472 0.004790093 0.010676147 0.008423632 0.0049096495
0.0012125451 0.0010946201 0.003389749 0.003809024 -0.0057155415 0.01787921 -0.007364272 -0.019371146
-0.017985927 0.016835267 -0.014962984 0.0047639883 -0.019801361 0.007663486 -0.023856884 0.010325795
-0.020028714 0.017774418 0.00984174 0.011529771 -0.019178785 0.0005658492 -0.02090732 0.014011291
-0.004941712 0.0024792643 -0.009681697 0.0034105163 0.0017743284 -0.0046505104 -0.011933414 0.009045989
-0.0098942425 -5.7284204e-05 0.00066908106 0.0113124 -0.0076253526 0.0035220308 -0.0060855513 -0.028650586
-0.0016088448 0.0020581125 -0.010207951 -0.018940607 0.0078971265 0.011652565 -0.00671992 -0.003544458
0.0007948754 -0.0005705016 0.0048408215 0.0076339473 0.0070987027 -0.013815033 -0.0033057476 0.020266138
-0.011001874 -0.0058252444 0.0022975593 0.003272436 -0.0012667319 0.006942909 -0.007978703 -0.016294172
-0.005652473 0.006552102 -0.012631651 -0.0016846439 0.008653727 -0.005703728 0.003774268 0.0055525666
-0.023205139 -0.022940803 -0.0028024777 -0.014719825 -0.0012749085 0.0038023333 0.006309065 -0.01547768
0.0076783346 -0.012472591 0.010399117 -0.016219854 -0.04623077 0.017268278 -0.011670959 -0.031365585

transformer_encoder.layers.0.self_attn.out_proj.bias f4 [64]
00000000: dd23 0c3f 5196 f53e 726c abbc 94cd f23c
00000010: a114 213f 387f e83e 7359 303e fbbe 1cbf
00000020: e599 a63e cbb8 423f 14e4 4b3f 90d3 03be
00000030: 49ac 023f feab 7f3c a34b 343d 66d7 133f
00000040: cc76 08bd f5d6 c53e eaeb 293f b266 9ebe
00000050: 6554 c83e d8de 4dbe a8fa 2f3f 889b 2a3f
00000060: a926 263f 07be 323f a4f9 573f 138f 193f
00000070: d5a0 173f 6237 b53e 980c cd3c f766 3a3f
00000080: 3561 d93e aa71 3b3f 55e6 5c3e 5d8a 5bbd
00000090: c30c 0e3f 6abe 463f f32f 0c3f ee43 bb3d
000000a0: 6ff3 93be 79be 43bc 2048 2d3c 7eab 0d3f
000000b0: ca54 dd3e f082 213f 34b7 323f 2d02 143f
000000c0: 596e ba3e cf02 8b3e ca21 8bbc 3899 003f
000000d0: 3851 cebc 7c34 b33e 0945 3c3f 979d 793e
000000e0: 7048 473f 6599 c33e 203f 6a3f d13a 203f
000000f0: 237f 103f 9a30 ae3e 7efd f33e 9741 233f
0.54742223 0.47966245 -0.020925734 0.029639043 0.629221 0.4540956 0.17221622 -0.61228913
0.32539287 0.7606322 0.79644895 -0.12873673 0.51044136 0.015604971 0.044017445 0.57750547
-0.03331642 0.38640562 0.663756 -0.30937725 0.39126888 -0.2010454 0.68741846 0.6664357
0.6490274 0.6982121 0.84365296 0.5998394 0.59229785 0.35393816 0.02503042 0.7281336
0.42456976 0.7322031 0.2157224 -0.05359875 0.5548822 0.776343 0.54760665 0.09143816
-0.28896663 -0.011947268 0.010576278 0.553398 0.4322875 0.6309042 0.69810796 0.5781582
0.36412314 0.2715058 -0.016983885 0.50233793 -0.025185212 0.3500098 0.7354284 0.24376522
0.77844906 0.38202968 0.9150257 0.62589747 0.56443995 0.34021455 0.47654337 0.6377196

transformer_encoder.layers.0.linear1.weight f4 [128, 64]
00000000: 699e c43a 0ca4 5bbd 095c 133e 963a 453d
00000010: 91bd 23bd 71b5 29bd 19be 0dbd 25c9 3c3e
00000020: 863e 5cbd 9b71 bcbc c816 ff3d 7807 fe3d
00000030: 2880 833d ceac b23d febe a43d 7a87 bf3c
00000040: e276 bebd f889 023e 877d 253c 9faf c93c
00000050: 08ee 6f3d 2d15 0c3e da35 84bd 15a6 b53d
00000060: 7546 9abd eea9 853d f5b6 3fbe c883 25bc
00000070: 44c5 9ebd 9373 dcbd 75db 5f3d 586c ffbd
00000080: 771c 51bd 6f9b 8abc 906b f63d efc7 cabd
00000090: 05f2 3c3e 4188 9dbd 10f5 10bc baac 43be
000000a0: 37b1 be3d 6e7d 0a3d b7e6 a23b 6e1d a3bd
000000b0: 2c20 1b3c 88bd 9cbc 50ba 933d 4238 1ebd
000000c0: 5121 03bd a918 b6bc bab7 3a3c f140 a93c
000000d0: 945b 9abd 0386 41bd 79ea db3d 77e6 193e
000000e0: b748 9d3d b8b2 033e 5f04 57bc eeae 15be
000000f0: e687 af3d b11a 6dbe 107f 2c3e 4fdf 02bd
00000100: 568a d5bd 9cc4 f83d b19b 2f3e 5c99 653d
00000110: 9f86 a839 2d92 33bc bb61 d1bd a9e5 1b3d
00000120: a227 823b fea8 bcbd 4e3f c5bc 5b76 243e
00000130: 33a2 bf3d 754f 933d d463 7e3d f3e1 aabd
00000140: bd43 f43d 5a98 76bd faf1 07be 179c dd3c
00000150: 15a6 0f3e ea5b 793e 4d05 cbbc 3fbe 2d3a
00000160: 229e 7bbd f343 46be 6309 b6be 93a1 89bd
00000170: 3966 c7bd 424f 40bd c24f 873e 4a84 82be
00000180: aa6c 353e e19b a4bd d83a 8c3d 0221 a7bd
00000190: a902 8f3e 9d86 ebbd bd2b 8f3d 57eb 49be
000001a0: 58ca 1a3e 393e 27bd 1ea3 ef3c d935 0d3e
000001b0: b862 59be bbc3 873d 3959 863d 4868 4abd
000001c0: 8f2d 5abe 22f9 363e 32e8 843e d64c ba3c
000001d0: ca39 133c 94a2 d83c 4e0f 313c 6106 953e
000001e0: 209f aabc 77ac 3c3e 30e5 a93d de54 c6bd
000001f0: 3154 c33d 3b45 25be 27f7 3a3e 2cd6 48be
00000200: 2286 c5bd 6d20 03be 59a1 6a3e faa8 893d
00000210: 0b52 723c c768 14be 0923 29be f43a 3f3e
00000220: 8c2f e53d 2f7e 223e e65a 423e bc8d 923d
00000230: ef4c 5a3d c14f 6fbd 0b0d 213e 86bf 3fbe
00000240: 8c8f 1a3e 1db0 8c3e 4e92 b63e 689f 513e
00000250: b06a 253e 5b32 0d3e e3b7 19be 2518 37be
00000260: 79d4 33bd 80a0 17be dfca 8abe a8bf 88be
00000270: e165 56be 4c2f a5bd 3f39 bb3d 3bf1 59be
00000280: 6324 1a3e 4ed8 dc3d 0de0 be3d 555c 41bd
00000290: 13a7 2b3e b1bf c0bd 3444 2dbe 7b96 16be
000002a0: 1800 853e 0e71 173d c253 08be d13a 883e
000002b0: 7728 0ebd d351 abbe 35db d3bd 048c 37be
000002c0: 62a3 7ebe 1e5a 4e3d f72b 963e 315f 273e
000002d0: 6b6b 96bd 563d 62bd 8d4d 073c 2ebe 633e
000002e0: f4ab caba 4d95 663c 1068 3fbc 5652 363e
000002f0: 074c 0c3e 6391 1dbe 75ec 28be 17c1 8abe
00000300: 44c7 acbd 13b6 2c3e b99d 263e 8b82 e5bc
00000310: 23bd 6a3e 43f7 a33d 1a84 ecbd 19d1 2c3e
00000320: 2010 8b3c 824a 35bd f654 c8bd 7a8f ce3d
00000330: f4d5 fc3d 0b26 febd bebf 273d f5df b0bd
00000340: 9137 93bc 0a4a 143e 9886 f2bb ae1f b0bc
00000350: a2f3 54bb da3c 0d3e f61c b5bd 5d19 46bc
00000360: 3eff 06be 76a4 c6bd 22b3 a03b e5a3 ec3d
00000370: a349 8a3d a85e 60be 8345 983e 9b5a 6fbe
00000380: a640 1fbe b070 143d 5e02 ce3d a180 c8bd
00000390: 609b f13c fcaa c4bd 88ad 72bd b1e7 91bd
000003a0: 5f78 193e 7272 7bbd 1446 e4bd 9161 d23d
000003b0: 39b8 753d ac18 3abe 8817 97bd 8922 32bd
000003c0: 0e68 17bd a3e0 963d 09cc ac3d 5ca6 0e3e
000003d0: 9498 66bd 436e 1cbd 744f 01bd 304b 143e
000003e0: 2645 e5bd 029e 093e 9d52 8e3b d63e ac3d
000003f0: eb4a 13bc ee01 04be 6339 5abe f641 9cbd
0.0015000823 -0.053623244 0.14390577 0.048151575 -0.039975706 -0.0414328 -0.03460512 0.18436106
-0.053770564 -0.02300339 0.12455517 0.12403768 0.06420928 0.08724366 0.08044241 0.02338003
-0.09300019 0.12747943 0.010100729 0.024619875 0.058576614 0.13679953 -0.06455584 0.08869568
-0.0753297 0.06526552 -0.18722136 -0.01010222 -0.07752469 -0.107642315 0.05465265 -0.12471837
-0.051052537 -0.01691982 0.12032235 -0.099014156 0.18451698 -0.07692004 -0.00884749 -0.19108859
0.09311145 0.033811025 0.004971351 -0.07964598 0.00946812 -0.019133344 0.07213271 -0.03862787
-0.032014195 -0.022228556 0.011396343 0.02066085 -0.075369984 -0.047246944 0.107380815 0.15029322
0.07679885 0.12861145 -0.013123601 -0.14617512 0.085708424 -0.23154713 0.16845345 -0.031951245
-0.10426776 0.12146875 0.17149235 0.056054458 0.00032143758 -0.010960144 -0.10223719 0.038060818
0.0039720098 -0.0921192 -0.024078038 0.16060774 0.09357109 0.071928896 0.062106922 -0.08343878
0.119269826 -0.060203888 -0.132759 0.027051969 0.14028199 0.24351469 -0.024782801 0.0006627775
-0.061430104 -0.19361858 -0.35554036 -0.06720271 -0.09736294 -0.046950586 0.26428038 -0.25491554
0.17717233 -0.08037544 0.06847161 -0.081605926 0.27931717 -0.11500285 0.06990764 -0.19718681
0.1511625 -0.040830825 0.029252585 0.13790073 -0.21229064 0.066291295 0.065599866 -0.049415857
-0.21306442 0.17868474 0.259584 0.022741716 0.008985946 0.02644471 0.010806872 0.2910643
-0.02082783 0.18425165 0.08295667 -0.09684156 0.095375426 -0.1613969 0.18258344 -0.1961295
-0.096447244 -0.12805338 0.22913112 0.06721683 0.014790068 -0.14493094 -0.16517271 0.18674833
0.111907095 0.15868448 0.18979988 0.0715594 0.053296026 -0.05842567 0.15727632 -0.18725404
0.15093821 0.27478114 0.35658497 0.20470965 0.1615398 0.1378874 -0.15011553 -0.17880304
-0.0439038 -0.1480732 -0.27107903 -0.26708722 -0.20937301 -0.08065662 0.09141778 -0.21283428
0.15052943 0.10783444 0.09320078 -0.047207195 0.16762953 -0.09411562 -0.16920549 -0.14705841
0.25976634 0.03697305 -0.13313201 0.26607373 -0.03470656 -0.33460864 -0.10344545 -0.17924505
-0.24867013 0.05037891 0.29330418 0.16344906 -0.07344707 -0.055234276 0.008258236 0.22240517
-0.0015462623 0.014073682 -0.011682525 0.17804846 0.13700877 -0.15387492 -0.16496451 -0.2710044
-0.084364444 0.16866331 0.16271104 -0.02801635 0.22923712 0.08006146 -0.11548634 0.1687664
0.016975462 -0.04426051 -0.0978183 0.1008596 0.12345496 -0.124096 0.040954344 -0.086364664
-0.017970832 0.14481369 -0.0074012987 -0.021499481 -0.003249385 0.13792744 -0.088434145 -0.012091008
-0.13183305 -0.09699337 0.004904167 0.11554698 0.06752326 -0.21911108 0.29740533 -0.23374407
-0.15552005 0.03624028 0.10059045 -0.09790159 0.029493034 -0.09602925 -0.059247524 -0.0712427
0.14987324 -0.06138844 -0.11146179 0.102725156 0.05999014 -0.18173474 -0.07377535 -0.043489967
-0.03696447 0.07367065 0.08437354 0.13930649 -0.056297854 -0.03819109 -0.031569913 0.14481807
-0.1119483 0.13439181 0.0043433444 0.084104225 -0.00899003 -0.12891361 -0.21310954 -0.076297686

transformer_encoder.layers.0.linear1.bias f4 [128]
00000000: dc0a 2fbe 614e 8ebe 3bf6 48be 7c80 03be
00000010: 49ea 65be 7f32 0bbe b01e fabd ff96 4fbe
00000020: a797 98bd 6a15 e6bd 857e d9bd 057e d4bd
00000030: 0b98 e6bd 4eb5 b5bd e253 29be 7052 33be
00000040: 1528 d6bd a5cc 74be be16 abbe 4e57 35be
00000050: 6b85 82be 3ab4 81be d321 1ebd 249a 79be
00000060: 48bc 14be cd84 79be 7a36 bdbe 02ce 783d
00000070: e5c3 05bf 0ac8 3cbe efe2 94be 27da 25be
00000080: d7d2 adbd ca6c 19be 0d63 14be 08ee 02be
00000090: a726 d3bc 06ca 52be d43b 7fbe 607c adbd
000000a0: a41f 16be 5794 8fbe 6d15 e5bd 1c76 47be
000000b0: 71c5 ff3d 1aa5 45be 723c 27be 3bb0 a4bd
000000c0: b565 6ebd 9430 cebe c6ac c6bd ec14 05bd
000000d0: 1330 30be 90fe 86be b530 11be 6ebc b0be
000000e0: aa35 78be eaaa f3bd 9fb8 04be bd1f 11be
000000f0: e7ee 21be 945e 9bbe a449 0bbe b4d3 4bbe
00000100: 5b71 80be 7f9c 82be 8a72 6bbe c3e9 3cbe
00000110: 079c 20be 28bf 8ebe 03a2 41be f659 27bf
00000120: 80d6 cabe 28ed 93be 86e6 c1bd c633 a1be
00000130: aa87 3cbe 8fe0 89be 3033 8dbe 7681 debd
00000140: be15 78be f3d9 a33d da13 eabd c8bf 4cbe
00000150: df35 083c edeb 57be d02a c6bd aaa9 6ebe
00000160: 1b0f 89be 67f7 e7bd 7e4a 99bd 1bc7 1ebe
00000170: 4a78 b8be fbf1 f5bd 55cf f0bd 502f 82be
00000180: 1d95 26be 5c4c febd f134 fdbd b59e 91be
00000190: 929a 91be 3319 53be 0500 e3bd 6290 0fbe
000001a0: c246 0bbc e971 c0be fe87 c9bd 933d 5cbe
000001b0: 4b00 80bd d44a 92be 1800 a5bd e6c0 1bbf
000001c0: 17a1 a53c 179d 5bbe c33f 95be 850d 02be
000001d0: d2d3 17be 1c7d c7be ee4f eebd 4d5a 4fbe
000001e0: e1d5 68be 0f0b 13be 9a6d e0bd f160 68be
000001f0: 7886 54be 69cb 8fbe b04f 7fbe 1e29 e6bd
-0.17093986 -0.27794173 -0.1962518 -0.12841982 -0.22452654 -0.13593481 -0.122128844 -0.20272444
-0.074508004 -0.11234553 -0.10619835 -0.10375599 -0.11259469 -0.08872472 -0.16535905 -0.17511916
-0.10456864 -0.2390619 -0.33415788 -0.17709085 -0.25492415 -0.25332814 -0.038606476 -0.24375206
-0.14524949 -0.24367066 -0.36955625 0.06074334 -0.52252036 -0.18435684 -0.29079387 -0.161965
-0.0848748 -0.14982906 -0.1449091 -0.12786114 -0.025775267 -0.20584878 -0.24925166 -0.08470988
-0.14660507 -0.28042862 -0.11185727 -0.19478649 0.12488831 -0.19301262 -0.16331652 -0.08041426
-0.058202464 -0.40271437 -0.09700923 -0.032490656 -0.17205839 -0.2636609 -0.14178737 -0.3451876
-0.24239221 -0.11897834 -0.12961052 -0.14172263 -0.1581379 -0.30345595 -0.1360231 -0.19904977
-0.25086483 -0.25510022 -0.22992912 -0.18448548 -0.1568452 -0.27880216 -0.18909459 -0.65371644
-0.39616776 -0.28891873 -0.09467797 -0.31484812 -0.18411127 -0.26929137 -0.27578115 -0.108645365
-0.24227044 0.08000555 -0.11429568 -0.19995034 0.008313625 -0.21086092 -0.096761346 -0.23306909
-0.26769337 -0.11326485 -0.074849114 -0.1550564 -0.36029273 -0.12009045 -0.117582954 -0.25426722
-0.1626782 -0.12416908 -0.123636134 -0.28441396 -0.2843824 -0.20615081 -0.11083988 -0.14019921
-0.008500757 -0.37586907 -0.098403916 -0.21507864 -0.06250056 -0.28572714 -0.080566585 -0.60841215
0.020218415 -0.21446644 -0.2915021 -0.1270047 -0.14826897 -0.38962638 -0.11636339 -0.20249291
-0.22737838 -0.14359687 -0.10958405 -0.2269323 -0.20754421 -0.28084877 -0.24932742 -0.11238311

transformer_encoder.layers.0.linear2.weight f4 [64, 128]
00000000: ced0 a3bc f9d7 b0bd 53b2 4dbd 0ec1 d33d
00000010: 706c 703e 4273 2abc 0ab3 8dbd fa09 60be
00000020: 515f cf3e ef36 a7bd 49c3 31be bd87 c73c
00000030: 9255 f93e 2385 9ebc e137 6cbe 1713 893d
00000040: bbba 583b 7570 133e eae0 f8bc 1853 d3bc
00000050: ad1b d6bd d139 a43c 91cd 08be d297 803d
00000060: 32ec bfbd 25de 19be 2ebc 403e 9cd2 d93e
00000070: a823 493d 9040 8fbd 9e3a 17be 3b03 033d
00000080: 6928 a2bd da23 1cbe 9e24 8e3d 160c 233d
00000090: d118 91bd 075f 99be 50de 85bd db18 0bbe
000000a0: e7b4 8d3c 2f27 f33d 022d 853c 5350 623d
000000b0: 3c46 e03e c8fd 78be 37e2 a33d d00a 0abd
000000c0: dd60 2ebe 9f86 633f 511f b63d 499b 81be
000000d0: 4cd5 3bbd bad8 4b3d 66fb 733d 88e5 f5bc
000000e0: e929 073e 507f 513e 7d73 233d c01a b9bd
000000f0: 6301 d6bd 5a95 213c 010f ac3d e1d6 6a3d
00000100: 0239 3e3e 3a6e 5cbd 6310 4fbc a7d8 283d
00000110: 0e3a 34be cd1c b7bb 30c2 ad3e 6698 323e
00000120: 76c7 683e b604 08bd f801 413e b139 1e3d
00000130: 4998 203e 36e5 333d 0719 11be 9d04 bdba
00000140: a65c 7d3d 3f50 84bd 6cf3 cbbd 855b 9f3c
00000150: 7a79 5b3d 4712 34be e5d1 813b eba8 f6bc
00000160: 02a5 7cbd 1ad7 38bc 078e 03bc 281d 693e
00000170: 9e98 8a3d 9f57 abbd 43e2 273c 8a62 943c
00000180: c04c 2f3e 8aff bdbc 4200 17be 2bef 23be
00000190: 6f11 d3bb 6ed0 dcbe 4ed4 1abe fd34 86bd
000001a0: 6b71 e8bc aade 05bd 5796 1cbe 50d7 353e
000001b0: 01c4 69ba 1569 5b3d 89f2 f23e 519e 513f
000001c0: 9f00 aabd dee7 fd3d 7950 99be c0e9 b83b
000001d0: 9b44 953d b43d 7e3e ea5e db3c 7069 bbbc
000001e0: 6b97 723d 02b2 8c3d 92d3 033d 3bbf 843c
000001f0: 203d 053d 0dd7 0cbe 433d 003e d549 a93d
00000200: 271f 3e3d 46cb 2f3e dd3c 66bb 2123 873b
00000210: fd1d 1cbe 58e1 ae3d 9e29 3cbe 1146 0a3b
00000220: 31da 81be 11f0 57bc 8923 edbd 199b 193d
00000230: 20d7 9ebd c8e1 27bd 1025 183d e8e7 993d
00000240: 5f82 35bc e41e e23d 0803 053e f018 86bd
00000250: afec 6abd 2e75 f7bc 7902 183d e0fa 253e
00000260: cc7c 7abd 3d1b 733c 4ddf 13be 7fb2 073f
00000270: e042 7f3d 7cf5 923d 07a3 af3d 668a 003e
00000280: dac1 af3c 35be e83d 52ec c33d c2a0 e4bc
00000290: def8 3a3e 2808 90be 546b 6cbe 52b1 10be
000002a0: 96b9 d2bd 89b7 743d 6cbc e03d b5ac 51bd
000002b0: 9100 f13d b9d0 3ebe ff23 f8bd 5f81 8abd
000002c0: c820 99bd ace9 2cbe f3cc d1bd 90b5 0abe
000002d0: 9e18 80bd 35d7 e83d f0ca d83d 0e04 823c
000002e0: 142d c63e 6a82 47bd 2a65 bb3d f824 013e
000002f0: 5180 4e3e 83e5 363c b9bd 96bd 5eeb 103d
00000300: 8ba8 6dbd 9ecd c9bd 6b9a 503d 8022 51bc
00000310: 1347 433e d7a3 ec3b b1a4 6f3d fdac bd3d
00000320: a3a0 a8bc 8163 843c 5a60 703e cae1 0cbd
00000330: 2185 493c 726d 183e 57f9 363d c1dd 113e
00000340: caa7 abbd e17c 2a3e 9684 7a3d 2c85 c63d
00000350: 326b 123e f2b2 c5bd c8da cb3d 46c1 3dbe
00000360: 0e67 febc 0683 fa3a 26a1 e13b 7cad f6bd
00000370: 3199 e73d 95ef 0abd 611c c13b 21e5 223d
00000380: f08b 11be 8fa8 733c a2f8 fcbb f106 1cbc
00000390: 72b4 0ebd aecb c4bc af3f 823d 0273 b43e
000003a0: e096 9c3d c699 ef3e 59bc aabd 1989 12bd
000003b0: 06f5 bcbd 104b cd3d b671 923e 421d a5be
000003c0: 8e29 22be ae66 3f3d 912a c03d ca2b 033e
000003d0: 26c3 5e3d 34ec a43d 8017 62bd c62d 90bd
000003e0: b442 253e adf8 1a3d d704 463d 6a52 28bd
000003f0: ed60 5a3d 365d aebd 0ecd 16bd c80e 8e3d
-0.019997027 -0.086349435 -0.05021889 0.10339557 0.23478866 -0.010403456 -0.069189146 -0.21878806
0.40502408 -0.081647746 -0.17359652 0.024356717 0.48698097 -0.019350594 -0.23068191 0.06693094
0.0033070284 0.14398368 -0.030380685 -0.025796458 -0.104544975 0.0200471 -0.13359667 0.062789574
-0.093712226 -0.15026148 0.18821785 0.42543495 0.04910627 -0.06994736 -0.14768454 0.031985503
-0.07917864 -0.15248051 0.06940578 0.039806448 -0.070848115 -0.29955313 -0.06536543 -0.135837
0.017298175 0.11872708 0.016256813 0.055252384 0.43803585 -0.2431556 0.080021314 -0.033701718
-0.17029138 0.8887729 0.08892692 -0.25313786 -0.045857713 0.049767233 0.059565924 -0.030016676
0.13199581 0.20458722 0.03990506 -0.09038305 -0.10449483 0.009862268 0.08401299 0.05733383
0.18576434 -0.053816058 -0.012638184 0.04122224 -0.17600271 -0.00558815 0.33937216 0.17440948
0.22732338 -0.033207618 0.18848407 0.038629238 0.15683092 0.043919764 -0.14169703 -0.001442093
0.061855935 -0.06460618 -0.099585384 0.01945282 0.053582646 -0.17585097 0.003961789 -0.030109843
-0.0616808 -0.011281753 -0.008029467 0.22765028 0.06767391 -0.08366322 0.010246816 0.018113393
0.17119122 -0.02319314 -0.14746192 -0.16009204 -0.006441287 -0.4312777 -0.1512005 -0.065530755
-0.028374394 -0.032683052 -0.15291725 0.17757916 -0.00089174515 0.05356701 0.47450665 0.81882197
-0.083009 0.12397741 -0.29944208 0.0056430995 0.07288476 0.24828225 0.026778657 -0.022877425
0.059226435 0.0686989 0.03218419 0.016204467 0.032528996 -0.1375391 0.1252337 0.082660355
0.046416428 0.17167386 -0.0035131492 0.0041240607 -0.15245815 0.08539075 -0.1837525 0.0021098892
-0.2536178 -0.013179795 -0.115790434 0.03750143 -0.077558756 -0.040986806 0.03714472 0.07514936
-0.011078446 0.11041048 0.12989438 -0.06547725 -0.057354625 -0.030207243 0.037111733 0.16208982
-0.06115417 0.014838037 -0.14440651 0.5300674 0.062319636 0.07175729 0.08576017 0.12552795
0.02145474 0.11364404 0.09566559 -0.027908687 0.18258998 -0.28131223 -0.23087817 -0.14130142
-0.10289304 0.059745345 0.109734386 -0.051190097 0.11767686 -0.18634309 -0.12116241 -0.06762957
-0.07476956 -0.16886014 -0.10244169 -0.13545823 -0.06254695 0.113691725 0.10585582 0.015871074
0.38706267 -0.048708357 0.09150155 0.12611759 0.20166136 0.011163118 -0.073604055 0.035380714
-0.058022063 -0.098536715 0.050928514 -0.012764573 0.19070081 0.0072216797 0.05850667 0.092615105
-0.02058441 0.016160728 0.23474255 -0.034395017 0.012299807 0.148855 0.044671383 0.14244749
-0.083816126 0.166492 0.0611616 0.09693369 0.14298704 -0.09653272 0.099538386 -0.18530759
-0.031055 0.0019112534 0.0068856655 -0.12044808 0.11308516 -0.03391989 0.0058932756 0.039769296
-0.14213538 0.0148717305 -0.007720069 -0.009523139 -0.034840055 -0.024022903 0.06359803 0.35243994
0.076459646 0.46797007 -0.08336706 -0.035775278 -0.09226422 0.10024083 0.2860238 -0.32248884
-0.15836164 0.046728782 0.09383119 0.12809673 0.054385327 0.08052865 -0.055198193 -0.070399806
0.16138726 0.037834812 0.04834446 -0.04109422 0.053315092 -0.08513872 -0.03681665 0.06936413

transformer_encoder.layers.0.linear2.bias f4 [64]
00000000: ef6e cfbe 409b babd 4ad9 213c fa4b 1fbc
00000010: bf5e 1abe cf4e 81bd 013c 0d3d a5d3 483d
00000020: a8b0 71be 62d6 debd a399 a7bd 2d07 bfbc
00000030: acde 78be dc4e aa3a 4b09 57bd 27eb 01be
00000040: d294 adbd 82ef 0c3e 0f88 dcbe dd26 063e
00000050: 9967 a4be 12bc 34be 0669 64bd 83b4 28be
00000060: 20ba aebb 2b0b 92bd 57b4 45be 05d8 f0bd
00000070: 2541 30be 3121 51be feb7 ae3c 3439 b1be
00000080: b9e1 7abe d371 81be d62a 48be e28b 11be
00000090: bf7a 73be a878 36be 34a7 ddbd 48dd a0bd
000000a0: 15ba f23c 8099 dfbc 8385 42bb 6e03 4a3d
000000b0: 3455 9b3d d4d5 f5bd 2b52 7f3b 1504 91be
000000c0: 35b5 f3bd db3c aabd 0491 8d3d 6ef0 11be
000000d0: 3660 1b3e 8f6b abbd 3c35 edbd 7a55 bbbd
000000e0: 4677 2abe 9c4a 2dbe 915c 2fbe eb74 40be
000000f0: f65a 4abd c36f a6be 0432 4dbe 8cdc efbe
-0.40514323 -0.09111643 0.009878466 -0.009722704 -0.15075205 -0.0631386 0.034481052 0.049029965
-0.23602545 -0.10880734 -0.08183601 -0.023318851 -0.24303693 0.0012993473 -0.052499097 -0.1268736
-0.08475651 0.1376324 -0.43072554 0.13100763 -0.3211029 -0.17649868 -0.05576422 -0.1647511
-0.0053322464 -0.07131036 -0.19307075 -0.117599525 -0.1721235 -0.20422818 0.021327969 -0.34613955
-0.24500169 -0.25282153 -0.1954759 -0.14213517 -0.23777293 -0.17819464 -0.10822907 -0.07854706
0.029629746 -0.027294874 -0.002968163 0.049319677 0.075846106 -0.12003675 0.0038958888 -0.28323427
-0.11899797 -0.083123885 0.06912425 -0.14251873 0.1517342 -0.083701245 -0.11582419 -0.09147163
-0.16647062 -0.16922992 -0.17125155 -0.187946 -0.049403153 -0.32507142 -0.2003861 -0.4684795
