outputs/convlstm_best.pt (torch, 342791 bytes, 9 tensors)

convlstm_cells.0.conv_gates.weight f4 [64, 34, 3, 3]
00000000: 188b 993d 5678 803d 0a2c 813d 3046 3d3c
00000010: 227c d53c 89dd 1a3d 4c1e da3c cbce 00bd
00000020: ba16 02bd 7873 903c 2f1c 1c3d e4ad b7b7
00000030: 52d3 bd3c 1403 b33c 1d87 6fbd 70c3 a03d
00000040: 8549 543d ceb5 1c3d 2687 9cbd 40c0 013c
00000050: 4426 83bd 727c 93bc 8b72 d9bc 6687 93bd
00000060: 319c 9fbd a70c 9a3c a89f 8d3c 9c4c e33c
00000070: bfca 753d 6ab9 8e3c 2a7f 473d 7e18 1a3d
00000080: f45f 573c c590 2a3d e17b ab3c 4938 983c
00000090: fd4b 563c baa8 c83b af30 26bc 04d4 243d
000000a0: bef5 7e3d fd59 cb3c e6ec 913d 025a 9e3c
000000b0: c8a7 163d 6593 94bc 0c9a dc3c 24ce 8e3d
000000c0: 16d8 8d3c 40c1 0bbd 6819 24bc 4506 28bd
000000d0: bbe9 f53c 3898 963c 835e 1a3c e165 cabb
000000e0: 709d b5bc 5a0c a0bc aa4b 85ba b6ca 57bd
000000f0: c158 2abd ea2e 60bc 15dd f53c 77f1 0e3d
00000100: 6edf 6f3b 0acf 86bd c32c aebc f4a8 5dbc
00000110: e3bc 003d 5d56 0dbd a056 973c c681 983c
00000120: 638d fbbc df39 b1bc 43e4 cc3c 8e8c 38bb
00000130: 2fa7 88bd c81d eabc a44f 35bd b2a5 03bd
00000140: 1188 4dbd 0eb2 fcbb 04f3 193b e4f4 433c
00000150: e07c 343c 46a7 d03c 1f4d 69bd 3fb4 963c
00000160: a337 fdbc 0c32 eabc 0c65 9d3d 5a2e bb3c
00000170: d3dd e7bc aba1 d63c eef0 233d 0b48 573d
00000180: 5cc5 c93b 2dc9 003d 7bd8 7a3c 4ab2 81bd
00000190: e1ae e33c 7070 033d fd57 11bd b438 8fbd
000001a0: a841 85bc 3ad6 e2bc 32dc 5cb9 28d3 d2bc
000001b0: 21eb c03c 6830 a43b d925 3b3c 5191 47b9
000001c0: 13f2 233d d7e0 183d 23ac 813d 9b69 173d
000001d0: e48e 553c ec78 363c 9242 a8bc b12d e9bc
000001e0: a2f2 1e3c a16c e63c 018d a7bc 93c0 e13c
000001f0: 43ae 41bd ba74 1fbd aa19 cebc 3d69 e3bc
00000200: ac2a 76bd dfe6 04bd f4f9 8abd 82c8 50bb
00000210: 6695 c2bd fac8 32bd 5b00 cabc cb6e 363d
00000220: 4d6f 22bd 0c24 91bc b30a 963d 95b4 b2bc
00000230: be97 0abd 3b82 ff3c 4648 6e3d b74c 2c3d
00000240: bb45 dd3c 28c6 0a3d 86f4 303c bf47 1c39
00000250: 0ac6 633c 4821 fdbc 68b3 7a3d eed1 363d
00000260: d5bc 803d 61a1 29bc c420 a73b c3b1 bd3b
00000270: 02db 90bd 56be 21bd dc8d 3bbd a60f e53c
00000280: 49ec 55bd a633 043c 12b9 173c 309b 6ebc
00000290: 8942 593d 4bf5 3fbb f912 053d 24e2 853d
000002a0: e53f 703d 6c83 863d c54c e33c fd16 ec3c
000002b0: f620 3f3d 3ed8 8ebd ba33 723c 5262 6abc
000002c0: adb1 2a3d 45ea 3c3d dbb5 ffbc 0156 19bd
000002d0: 360c 183d a5df 05bd df20 873d aa73 c03c
000002e0: c65e c0bc d87b c53c 4614 e23b 67d1 3c3c
000002f0: 9596 663c c4bd 13bd 15da 253c 8b0f aa3c
00000300: c7dd 00bc 6f88 943d b38d 8e3d 724c 44bc
00000310: 003c c83b fc82 993c da42 123d 61f3 9c3c
00000320: 7094 1d3d 2f7a 223d 7ae0 8a3c 8a99 86bb
00000330: d569 883d 5f17 43ba 454c 9e3d 5e12 153d
00000340: a729 753d 0138 23bd 6514 6dbc 46e5 8a3d
00000350: e09a e7bc 6b23 08bd dbfc 173c 322d bd3a
00000360: 25ef 53bd 721b 94bd 5ed7 753d 83b6 09ba
00000370: 2973 95bc 26fe 15bd 53d7 1a3d 955b d0bc
00000380: 6ac1 adbc ed74 a83c 2da0 06bd 39f7 4ebd
00000390: 0c14 ddbc bcad a13c ad6f fbbc 6bd5 ff3b
000003a0: 4bba 0cbc 3099 aabb 63b2 c3bc 9555 fdbc
000003b0: bbe1 47bd cae3 363a 7478 f73c 62a4 783d
000003c0: 1960 0a3d 0c95 0fbc d794 583d 2fc6 86bd
000003d0: 1f0a f2bb b3e5 ae3c 178a ad3c d4ad 3abc
000003e0: 98d3 8bbb 5092 493b 1f92 1c39 287d c1bb
000003f0: 68d1 013c c798 563a 0297 2bbd 9e2c dcbc
0.07497233 0.06272952 0.06307228 0.011552379 0.026060168 0.03780893 0.026625775 -0.031447213
-0.031759955 0.017633185 0.038112815 -2.1896274e-05 0.023172054 0.021852054 -0.058478463 0.07849777
0.051827926 0.03825932 -0.07642965 0.007919371 -0.06403783 -0.018003676 -0.026543876 -0.072035596
-0.07793463 0.018804861 0.017288044 0.027746491 0.060007807 0.017422397 0.048705257 0.037621014
0.013145436 0.04164197 0.020933094 0.018581526 0.01307964 0.0061236294 -0.010143443 0.040241256
0.062246077 0.024823183 0.07125263 0.019330028 0.036781102 -0.01813669 0.026928924 0.06972912
0.017314952 -0.034119844 -0.010015823 -0.041021604 0.030018678 0.01838313 0.009421947 -0.0061766957
-0.022169799 -0.01953714 -0.0010169644 -0.052683555 -0.04158855 -0.01368306 0.030012647 0.034898248
0.003660168 -0.06582458 -0.021261578 -0.013529051 0.031430136 -0.03450619 0.018473923 0.018616568
-0.030707067 -0.02163404 0.025011187 -0.002815995 -0.06672513 -0.028578654 -0.044265404 -0.03214044
-0.05017859 -0.0077116555 0.0023490796 0.011960242 0.011016101 0.025470387 -0.056958314 0.018396495
-0.030910319 -0.028588317 0.07685289 0.02284925 -0.028304016 0.026200136 0.04002469 0.05255894
0.0061575603 0.031441856 0.015310402 -0.06332834 0.02779335 0.03208965 -0.035484303 -0.06993237
-0.016266659 -0.027690042 -0.00021062864 -0.025735453 0.023549618 0.0050106533 0.011422598 -0.00019032253
0.04002578 0.0373238 0.063316606 0.036965948 0.013034556 0.011137228 -0.020539556 -0.02846417
0.009701403 0.02812797 -0.020452978 0.027557647 -0.04728533 -0.03892968 -0.025158722 -0.027760142
-0.06009929 -0.03244674 -0.06785956 -0.0031857793 -0.09501152 -0.043648697 -0.024658373 0.044539254
-0.039656926 -0.017717384 0.073262595 -0.021814624 -0.03383612 0.031190028 0.058174394 0.04206535
0.02701079 0.033880383 0.010800486 0.00014904047 0.013902197 -0.030899659 0.06120625 0.0446338
0.06286017 -0.010353417 0.0051003415 0.005789013 -0.070730224 -0.03948816 -0.045789585 0.027961563
-0.052227292 0.008068955 0.009260433 -0.014563367 0.05304197 -0.0029290493 0.032488797 0.065372735
0.058654685 0.065680355 0.027746568 0.028819555 0.046662293 -0.06974839 0.01478284 -0.014305668
0.04167335 0.046121854 -0.031214645 -0.037435535 0.03712102 -0.032683987 0.065980665 0.023492653
-0.023482691 0.024106905 0.0068993894 0.011524535 0.0140739875 -0.036069646 0.010122796 0.020759365
-0.007865376 0.07252585 0.06960621 -0.011981117 0.006110668 0.018739216 0.035708286 0.01915902
0.03847164 0.039667305 0.016952742 -0.0041076588 0.06660811 -0.0007442142 0.07729391 0.03639447
0.059854176 -0.03984833 -0.0144701945 0.06782012 -0.028272092 -0.033236902 0.009276594 0.0014433025
-0.051741738 -0.07231797 0.060019843 -0.00052533316 -0.01824339 -0.036619328 0.037803005 -0.025434295
-0.021210391 0.020563567 -0.0328676 -0.05052874 -0.026987098 0.019736163 -0.0306929 0.007807424
-0.008589338 -0.0052062497 -0.023888772 -0.030924598 -0.048799258 0.0006976692 0.030208804 0.060703643
0.033783052 -0.008763563 0.05287632 -0.06580769 -0.0073864604 0.021349763 0.02118401 -0.011393983
-0.0042671673 0.0030757375 0.00014931754 -0.0059048124 0.0079234615 0.0008186218 -0.04189206 -0.026876744

convlstm_cells.0.conv_gates.bias f4 [64]
00000000: cfb0 c6bb 4cf3 a23c 3323 8d3d 065c 723d
00000010: 3bb1 253d 8183 2c3d d116 243c 38d5 e33c
00000020: 3fdb f8bb 8abb da3c 4165 313d 7629 5b3d
00000030: 7c8d 103d 39a2 72bb 4258 763c 7ebd 2bbd
00000040: f8dc d33c 6028 ce3d 0ad0 b63c b47c 8bbb
00000050: 2d49 733c c368 9bbb 73ad d13c 77ee a5bc
00000060: fc34 28bc 4c8a ff3c e198 f53c 54ea c5bc
00000070: 779a 6fbc 5ebc 3e3c f1c7 893c eb2e 7c3d
00000080: 0cbb 813d acad 803d 2e28 823d 277a 053e
00000090: 6280 e63d 298f ce3d a977 083e ecb6 ec3d
000000a0: 370a dc3d 9b75 0f3e 2d65 1c3e 4303 253d
000000b0: 1d41 dc3d 1e37 ed3d 6efa 933d ecc1 5b3d
000000c0: 3b9a 053e 750c 493d b5b3 da3d 7c42 f73b
000000d0: 6642 773d d770 ec3d a96f e43d 2a62 013e
000000e0: 27f9 003e d1b0 c73d 4ddf b53d c2f1 f23d
000000f0: 3d1a d83d d468 f53d 05f9 433d 7e25 003d
-0.0060635577 0.019891404 0.06891479 0.05916979 0.040452223 0.0421176 0.0100152055 0.027811632
-0.0075944955 0.026700754 0.043309454 0.053506337 0.03529118 -0.0037022962 0.015035691 -0.04192876
0.025862202 0.10066295 0.022315998 -0.004256809 0.014848989 -0.004742713 0.025595402 -0.02025531
-0.010266539 0.031193875 0.029980125 -0.024159588 -0.01462423 0.01164159 0.016818972 0.061568182
0.063345045 0.06283125 0.0635532 0.13034879 0.11254956 0.100858994 0.13326897 0.11558327
0.10744136 0.14009707 0.1527297 0.040286314 0.10754607 0.115827784 0.072255 0.053651735
0.13047116 0.049084146 0.10678808 0.0075457674 0.060366057 0.1154496 0.1115411 0.12635103
0.12595044 0.09750522 0.08880482 0.11862518 0.105518796 0.11982885 0.047844905 0.031285755

convlstm_cells.0.conv_candidate.weight f4 [32, 34, 3, 3]
00000000: 2dbc 73bd 8498 083d 84b3 dbbd 4327 a5bd
00000010: 43f1 e2bd d167 3cbd f0b8 e6bd 0aae f3bd
00000020: 3d81 a8bd bf45 81bd b4ec 8dbd d7f1 b2bd
00000030: 60f9 2cbd 7463 90bd dda4 65bd 9b33 00be
00000040: e500 ebbd 1f6c f63c 8cda f8bc 6e59 883c
00000050: 864a f53c f6b8 4b3d 30d7 963d 2d59 183d
00000060: d5ae fb3c 5e79 853d 114f aabc 3cf2 97bd
00000070: ad5d 0cbd 6c6b 02bd 0c89 a33c 847d 4b3c
00000080: 3610 fe3c 2ebe 9fbd 15d6 aebc dcfb 83bd
00000090: 4eea 4cbd 334f d7bc e3a1 9cbd 884b 4ebd
000000a0: b469 3ebd 8b0d ea3c 59d5 1cbd e019 20ba
000000b0: 8a37 c6bc 7168 453d 2332 8f3d 3b11 003d
000000c0: be0a 073d ae85 5f3d 9ab2 113c 98ba 6dbc
000000d0: d6e5 453d 0100 0a3d 9d06 ba3c 0e61 a03d
000000e0: 2085 45bc 740e 833d 4c38 17bc 5f24 b53c
000000f0: 5dac 863d 42bb 5bbb 9993 f63c b677 883d
00000100: 8d59 473d d6a1 883d 8e51 483d f5d2 a03d
00000110: 58ea c53c fc97 453d d1d2 1d3d 4fe4 9a3d
00000120: ebd7 96bc a77d 4d3d c095 0bbd 4d94 483d
00000130: 3de5 02bd 65a1 1e3b 81fc f03b a0e0 123d
00000140: 7a6f 11bd e66b a6bc 42e1 553d 495c 883b
00000150: c4e3 8b3d cc57 4a3c da57 2c3d 2d30 9a3c
00000160: 661a 9f3d f672 1f3d d657 4cbd 5eee b33c
00000170: 9036 e1bc 847e 063d f83a afbc 05db db3c
00000180: 341f d5bb bbf3 c83c fec9 1dbd 4526 15bc
00000190: c264 a23b 2794 dbbb bb5b 10bd 3db6 433d
000001a0: 7f48 203d d656 ab3b 0b97 bf3c f880 9c3d
000001b0: b47c 83bd 4764 72bc afc1 3ebd cae8 963c
000001c0: 2832 9ebd 5f6d 373a 2e2d be3a f354 7cbd
000001d0: 31a1 87bd ff82 fd3c 520b 153d b887 193c
000001e0: 77c7 f03b 5e75 e63c ded2 93bc 2bdf c23b
000001f0: 1eed b13b 0a5e 333d 167e 853c 394a da3c
00000200: 3dec 903d 826d 253d 0d84 423d 451d 943d
00000210: db87 2c3b 6b23 f53c c0c7 613d 01ce 973c
00000220: 16d9 303c 9265 a8bd 4044 5abc 3c6b 16bd
00000230: b621 2dbd 0043 b8bd 1bf7 8ebc f1cb 233c
00000240: fb86 4fbc 95d2 023c 1534 87bd a7fc 9ebd
00000250: cbd8 3abd 81fa 94bb c029 ac3c 54f6 493a
00000260: e725 cebb ddd7 ceba d7e0 0cbc ac66 2d3d
00000270: 9f9a 39bc 5ec1 5a3c 21af 3e3d 9b69 523d
00000280: 64da b1bc 9e0d cd3c 8040 17bd 9a02 89bc
00000290: c79b abba 3453 2ebd 11d2 03bd c04a 22bb
000002a0: ad41 223c 30cd 183c bd88 d3ba dc60 26bd
000002b0: 2756 623d fbe7 55bb 8350 84bd 51a3 443d
000002c0: 2e3b 393c ff4a 183d b0b3 b43c 3c3c 2c3d
000002d0: 3806 8c3d a173 453d 9ca0 063d dc3a 9abc
000002e0: 4310 adbb 342c 043d 79fd 8e3c add5 873d
000002f0: e5a4 d63c 2255 4ebd d95f 53bd 2e5d 8bbc
00000300: 11b9 31bb 1aed 8ab7 364e 9ebd b695 183c
00000310: eb02 19bd ef47 15bd a0cc 97bc d0eb 03bc
00000320: 25ad eb3c d78d e438 9c92 33bd e46b 79bd
00000330: 0f8b 923b 0e46 843c 5a33 c63c 897d 9dbc
00000340: 0feb 2a3b 31ac 6bbd 4eb4 ba3a 1e39 2fbd
00000350: 962a 59bd ac13 88bd 06ed 73bd 541f 053d
00000360: 1f70 553a b1c6 663d 9f13 e93b 112f ba3c
00000370: 9efb 413d 2ad1 823a db04 913d d9ec 753d
00000380: 0286 a1bc cd52 1e3d 1cd1 12bb b32b b33d
00000390: 3437 87bc 591c 353d 9b79 b3bb 2eeb 6dbb
000003a0: 8dba b93c b9ac 903c fae9 e13c 4010 73bd
000003b0: 2fb2 55bd d305 c43b 7063 eb3c 7b6d 4cbd
000003c0: 6014 f73a e332 63bb ee5e 2dbd 0857 86bd
000003d0: 3b2c f5bc 7bd4 503d 2a77 9a3c e416 8bbc
000003e0: 163c 113d 3e9d 8cbd 06df 76bd 800a 99bc
000003f0: 71bf 0d3c 3b1f adbc 71c1 623d 1e8b bc3c
-0.05950563 0.033348575 -0.10727599 -0.08064129 -0.11081173 -0.045997445 -0.11265743 -0.1189843
-0.08227775 -0.06312131 -0.06929913 -0.087375335 -0.04223001 -0.07050219 -0.05606543 -0.12519686
-0.1147478 0.030080853 -0.030377649 0.016644206 0.029942762 0.04973694 0.073652625 0.03719442
0.030723015 0.065172896 -0.020789655 -0.074192494 -0.034269024 -0.031840727 0.01996281 0.012420062
0.03101359 -0.07799946 -0.021342317 -0.06444523 -0.050028138 -0.026282882 -0.07648065 -0.050365
-0.046487525 0.02857091 -0.0382894 -0.00061073713 -0.024196405 0.048195306 0.06991985 0.031266432
0.03296923 0.054570846 0.00889268 -0.014509819 0.04831489 0.03369141 0.022708232 0.07831012
-0.012055665 0.06399241 -0.009229731 0.02211207 0.065758444 -0.0033528362 0.030099677 0.06663458
0.048669387 0.06671493 0.0489059 0.07852737 0.024159595 0.048240647 0.03853113 0.07563078
-0.018413505 0.05016866 -0.03407836 0.048969556 -0.0319569 0.0024205085 0.0073543196 0.03585875
-0.035506703 -0.020315122 0.052216776 0.004161392 0.06830552 0.012350034 0.04207597 0.0188218
0.07768707 0.038927995 -0.049888454 0.021964248 -0.027491838 0.0328355 -0.021390423 0.026837835
-0.006503964 0.024530282 -0.038522713 -0.009103362 0.004955859 -0.0067010107 -0.03524373 0.047781218
0.039131638 0.0052288575 0.023387453 0.07641786 -0.064202696 -0.014794416 -0.04657143 0.01842155
-0.0772441 0.00069971936 0.0014509314 -0.06160445 -0.06622542 0.030946253 0.03638775 0.009370737
0.007347997 0.028132137 -0.018044885 0.005947014 0.005429878 0.043790855 0.016295474 0.02664672
0.07076309 0.040387638 0.047489215 0.07232145 0.0026326093 0.029924115 0.055122137 0.018530848
0.010793945 -0.08222498 -0.013321936 -0.03672336 -0.042268477 -0.08997154 -0.017451813 0.009997354
-0.012666459 0.007984777 -0.06601731 -0.07763033 -0.045616906 -0.004546464 0.021016002 0.0007704247
-0.0062911394 -0.0015780885 -0.008598528 0.042334244 -0.011328368 0.013351766 0.046553735 0.051370244
-0.021710582 0.025030907 -0.036926746 -0.016724873 -0.001309269 -0.042559817 -0.032182757 -0.0024763793
0.009903354 0.009326264 -0.0016138774 -0.040619716 0.055257943 -0.0032639492 -0.06460669 0.048007313
0.011305613 0.037180897 0.022058338 0.04204963 0.06837124 0.048205975 0.032868013 -0.018826894
-0.0052814796 0.032268718 0.01745485 0.06632552 0.026201675 -0.050374158 -0.05160508 -0.017012205
-0.0027118365 -1.6561291e-05 -0.07729761 0.009313038 -0.0373563 -0.036445554 -0.01853019 -0.008051828
0.028769085 0.00010898307 -0.04384099 -0.06089391 0.0044721435 0.016146686 0.024194408 -0.019224899
0.0026080047 -0.05753726 0.0014244409 -0.04277908 -0.05301913 -0.06644377 -0.059552215 0.03250058
0.00081420125 0.05634183 0.0071129347 0.022727521 0.0473591 0.0009980549 0.07081004 0.06004033
-0.01971722 0.038653184 -0.002240247 0.08748569 -0.016505815 0.044216488 -0.005477143 -0.0036303508
0.022671962 0.017660486 0.027577389 -0.05934167 -0.052171882 0.0059821396 0.028733939 -0.049909096
0.0018850677 -0.0034667782 -0.04232686 -0.06559569 -0.029928317 0.050983887 0.01885565 -0.016978689
0.035457693 -0.06865929 -0.060271285 -0.018681765 0.0086516 -0.021133056 0.05536026 0.023015555

convlstm_cells.0.conv_candidate.bias f4 [32]
00000000: 3068 f2bd e06d 023e b248 f03d bc4a 86bd
00000010: 2f10 4abd 58d8 58bd 96b9 c1bd f0f7 afbd
00000020: 246e 973d 5142 05be 5878 973d 5f2b 09be
00000030: 7a42 cbbd 0b06 973d b9b5 793d 2376 b6bd
00000040: a177 d23d 2569 843d 65c8 83bd 3462 923d
00000050: d395 943d b33d 333d 01be 94bd b0df d9bd
00000060: 209c 083e 05d2 323d 958f 00be 67a7 eb3d
00000070: f334 c93d 4e5d d0bd 935a 35bd a29d b0bd
-0.118362784 0.12737226 0.117326155 -0.06557223 -0.04933184 -0.052940696 -0.09459226 -0.08592212
0.073940545 -0.13013579 0.073960006 -0.13395451 -0.09924789 0.073741995 0.06096432 -0.089092515
0.10276724 0.06465367 -0.064347066 0.07147637 0.07255139 0.043760013 -0.07262803 -0.10638368
0.13340807 0.04365732 -0.12554772 0.11506539 0.098245524 -0.101740465 -0.04427583 -0.08623816

convlstm_cells.1.conv_gates.weight f4 [64, 64, 3, 3]
00000000: 6a1a 1bbd f9cd 7fbd 043c 20bd f7d8 22bd
00000010: 106b e3bb fb46 81bc 8239 533a 6cbf d8bc
00000020: 56ad 2d3b 80bc a53c 8ae8 323d 7741 a43c
00000030: 215f 9dba 085f 943d 2d34 5a3c bd24 5e3c
00000040: 8325 243d 99ee d6bb 7abc 6b3d 2f3d 423d
00000050: f146 af3d 9590 e03c e0d1 543d 360f 473c
00000060: 8688 4f3d 4ff4 913d 84d4 ef3d 4ef1 bfbb
00000070: 3308 7dbd 7cb4 b6bc 2ecf 583c 633c afbd
00000080: cbe9 333c 8d95 c73c 51ad 8b3c c038 8bbd
00000090: 0664 213a dfa4 3cbd 81ef 5fbd 0ce6 d239
000000a0: 76be 65bd 20a4 18bd 2634 a93b 5d19 d2bb
000000b0: f4b1 5fbd 7a88 5fbd 267a 57bd 071a 89bd
000000c0: de92 9038 2138 a8bd 861c 89bd 317c a7bc
000000d0: 9f11 91bc a733 e1bc a34a 47bd 4dde 87bc
000000e0: d758 6ebc 939c 21ba 5164 09bd 68ae fdbb
000000f0: 4561 8dbb 3ba9 68bd ce3f bcbd ba85 20bd
00000100: db4c 92bc 8cfe 00bd ce15 abbd 88be c8bc
00000110: 2be5 8dbd d0f5 29bd b8e7 1ebd ccf6 b4bc
00000120: 11c5 133d 1fb0 423c 2b8a 71bc ca94 4f3d
00000130: 7223 a43d 82b0 3c3b 0ac0 963d a3e0 7c3d
00000140: 4ac5 1e3d 7062 a6bc 3ce4 ecba 2015 2ebc
00000150: 6fdd 7bbc c54d efbc 4863 42bc a34b 73bc
00000160: ac5a 44bd e449 c3bc f26d 193c 3c38 a9bb
00000170: d5a5 883d 9a00 813d 4752 a93d 18c1 283d
00000180: 6083 7d3b e9fd b13d 123c a13c 230b a3ba
00000190: a843 2dbd ca84 de3c d87e ea3c f4bd 51bd
000001a0: f7a5 80bd 18b4 673d a94c 2c3d 0fd5 3cbb
000001b0: 132b 76bd 43e3 f8bb f76a 60bd 0f5d 583c
000001c0: 8973 64bc 24e5 cabc a151 26bc d4e5 653b
000001d0: 13c7 90bc 6f8b 0f3d 43cf e03c 23d7 9f3d
000001e0: df80 133d 7a3c 983d 460e 933d 2ca7 513d
000001f0: 2f7f 3cbb 4cdf 853d 0888 a33c 0671 bb3c
00000200: a6b1 e13c be15 a73d 97c9 7f3d 48ad ebbb
00000210: 8305 933d 2b3a 323d c451 23bc b8ca 2d3b
00000220: b657 2a3c 77da 70bd 309f fb3b 44b5 7fbd
00000230: 92a0 f8bc 0eec 2a3c 857e 3fbb e75f 68bd
00000240: 118e 8f3d 0cff 353b 964c 7d3d 648c 8c3c
00000250: 5e56 60bc c75f 963b 6d38 2ebc fae4 7f3d
00000260: 4b5c 7f3d d524 573d 58fb bf3d 8b17 2f3d
00000270: 3011 8a3d 0128 0b3d 48c7 bd3c ba69 a63d
00000280: bcf3 303d 1646 d13d 043c 44bd 1454 1dbd
00000290: c963 40bd 71d6 97bd 5bc6 b4bd 4d0b 85bd
000002a0: 50ae f6bc eabc 47bd 8b18 acbd 4d1b 7e3d
000002b0: e31b 003d 764e e93c 73ac 423d 282e 863d
000002c0: f87a 933c 1846 b13c dd76 483d f8e9 4e3d
000002d0: fda9 383d 446e 7f3d 622a 143d 20ad 283c
000002e0: 07ad 2c3c 255f f73a 47ae 883d 1930 d43c
000002f0: c8df ef3b f939 bb3c 385f 9a3d 77ed b93c
00000300: de1b 0a3d 8315 a13c a5c7 0c3d 8456 2abc
00000310: c7d1 06b9 3c00 173d 934e 09bc dfba a2bc
00000320: 5816 12bd 4dbd 1fbd e494 5dbd 124e 22bd
00000330: 7413 e5bb 42c5 39bd 90c9 44bd 704e cbbb
00000340: e2f9 10bd 4f10 44bd e1f6 a33b 7612 0abc
00000350: 600e 68bc 5df7 83bd 0f4a 24bd f596 66bd
00000360: 3e43 8a3c f82d 9d3d 12b6 ef3b 3e62 1c3c
00000370: 276d 193d 627e 1a3d a2b1 c53c 0e51 c93c
00000380: caf3 c03c 17b8 a53a 8a98 843d 322e 793c
00000390: 08e2 d13c 8b84 5b3b 65cf 783d 9058 303d
000003a0: ae28 763d 7656 8b3d cc75 05bb 047b 9f3b
000003b0: 6607 42bd 1cbd 9ebc 8b20 63ba 987f cdbc
000003c0: 8ff5 2cbd bc05 7bbc fb0d 18bc e405 933d
000003d0: 096c caba a017 493d ed7e ca3d 8458 793d
000003e0: 6265 6b3c 4e54 d3bc 7c04 113d 240f 753d
000003f0: 8e97 983d c3fd da3d 4b3e 953d 4fee 853d
-0.037866987 -0.06245229 -0.039119735 -0.039757695 -0.006940253 -0.015780916 0.00080575806 -0.026458465
0.0026501021 0.020231485 0.043678798 0.020050747 -0.00120065 0.07244688 0.013318104 0.013558564
0.040074836 -0.006559205 0.057552792 0.04742163 0.08558453 0.027412692 0.051957965 0.012149623
0.05066731 0.07126676 0.11710456 -0.005857623 -0.061775398 -0.022302859 0.013232989 -0.0855644
0.010981034 0.024363304 0.017050417 -0.067979336 0.0006156567 -0.04605567 -0.054671768 0.0004022572
-0.05608984 -0.037265897 0.0051636873 -0.006411715 -0.05461307 -0.054573514 -0.052606724 -0.066944174
6.893811e-05 -0.08213831 -0.066948935 -0.020444961 -0.017708598 -0.02749045 -0.048655163 -0.016585493
-0.014547548 -0.0006164994 -0.033542935 -0.007741738 -0.004314574 -0.056802016 -0.09191857 -0.03919003
-0.017858913 -0.031492755 -0.08353768 -0.024504915 -0.06928476 -0.04149419 -0.038795203 -0.022090338
0.03607661 0.011882811 -0.0147424145 0.050679006 0.08014573 0.002879173 0.07360847 0.061737668
0.03876237 -0.02031061 -0.001807339 -0.010625154 -0.015372618 -0.029211888 -0.011864491 -0.014849576
-0.047938034 -0.023838945 0.009364592 -0.0051641744 0.06672255 0.06298943 0.08267646 0.041199774
0.0038683042 0.08691008 0.019681964 -0.0012439232 -0.04230085 0.027162928 0.028624937 -0.051206544
-0.06281655 0.056568235 0.042065296 -0.0028813516 -0.060099673 -0.007595451 -0.05478951 0.013205781
-0.013943561 -0.024767466 -0.010151298 0.0035079615 -0.017673051 0.035045084 0.02744258 0.07804706
0.036011573 0.0743341 0.07180457 0.05118482 -0.002876233 0.06536731 0.019962326 0.022881042
0.02755053 0.08158444 0.06244811 -0.0071922876 0.07178786 0.043512505 -0.009968225 0.0026518535
0.0103968885 -0.058802094 0.0076788887 -0.062428728 -0.030350003 0.010432256 -0.0029219699 -0.056732085
0.07009519 0.0027770428 0.061840616 0.017156787 -0.013692467 0.0045890543 -0.01063357 0.06247423
0.062343877 0.05252536 0.09374112 0.04274706 0.067415595 0.033973698 0.023166314 0.081256345
0.043201193 0.10218446 -0.047908798 -0.03841026 -0.046970163 -0.07413948 -0.08826896 -0.06496296
-0.030112416 -0.048764147 -0.08403119 0.062037755 0.031276595 0.028479796 0.04752774 0.06551772
0.018002972 0.021639869 0.04894148 0.0505161 0.04508399 0.062361017 0.036173232 0.0102951825
0.0105393 0.001887296 0.06673866 0.025901841 0.007320378 0.022854792 0.07537693 0.02269624
0.033717982 0.019663578 0.034370083 -0.0103966035 -0.00012857384 0.036865458 -0.00838055 -0.019864498
-0.03566584 -0.03899889 -0.05409707 -0.039625235 -0.0069908444 -0.045354135 -0.048043787 -0.006204419
-0.035394557 -0.047867116 0.0050037955 -0.008427253 -0.0141635835 -0.06443665 -0.04010969 -0.056296308
0.016877767 0.076747835 0.0073154056 0.009544907 0.03745761 0.037718184 0.024132553 0.024574783
0.023553748 0.0012643364 0.06474407 0.015208768 0.025620475 0.003349575 0.06074466 0.04305321
0.06009739 0.068036005 -0.0020364402 0.0048669595 -0.047370337 -0.019377284 -0.0008664212 -0.025085256
-0.04222637 -0.015321191 -0.009280677 0.07178858 -0.0015443574 0.049094796 0.098874904 0.06087543
0.014367433 -0.025797036 0.035404667 0.059828892 0.07450782 0.106929325 0.07287272 0.065395944

convlstm_cells.1.conv_gates.bias f4 [64]
00000000: 80b9 b33b 2430 073d 733f 8f3d faaf 053c
00000010: a1a4 403d d5b0 333d 18d1 163d 6418 283c
00000020: 04e5 013d 9a15 933d c223 7fbb b63e 773d
00000030: 52fd 203c db7e 5fb6 4078 173c b0f9 3a3b
00000040: 3205 ff3c a60b cdbb 6411 e33c 005f 543c
00000050: a059 ce3c 5667 0d3d 1e5b b73b 1df7 ac3a
00000060: fa98 893d 7112 903d e4f9 583d 406e 923d
00000070: 6cd2 7bbb 5c5b fc3c 72de 2d3d e091 1c3a
00000080: f2e3 553d 3fe9 7d3d 6f09 983d 7aab be3d
00000090: 2b57 2c3d 1daa cc3d 156f bd3d cf0b dc3d
000000a0: a6a7 bb3d 17f8 883d 155f db3d e1c2 db3d
000000b0: f1d0 1f3d e813 183d e74b ea3d 1b1b cb3d
000000c0: 6fc0 163d 3336 e43d d0aa b03d 82e8 433d
000000d0: 91b7 a03d 0b4c cc3d 1cc3 663d b0ca 853d
000000e0: e216 c83d f6fe c43d 81a6 c33d cb23 b33d
000000f0: b29b b63d 6faa dc3d 692e c13d 9393 df3d
0.00548476 0.033004895 0.06994524 0.008159632 0.047032002 0.043869812 0.0368205 0.010259721
0.031712547 0.071818545 -0.0038931225 0.06036254 0.009826021 -3.330343e-06 0.009244978 0.0028530173
0.031130407 -0.006257492 0.027718253 0.012962103 0.02518922 0.034522377 0.005595579 0.0013196204
0.06718631 0.070347674 0.05297269 0.07149935 -0.0038424982 0.030805282 0.04244847 0.0005972665
0.05221934 0.06199002 0.07423674 0.0931005 0.042075317 0.09993384 0.09249703 0.1074444
0.09162836 0.066879444 0.10711495 0.107305296 0.03901762 0.03712836 0.114402585 0.09917279
0.036804613 0.1114315 0.0862633 0.04782916 0.078475125 0.099754415 0.056338415 0.065328
0.097699896 0.096189424 0.095532425 0.08747061 0.08916415 0.10774695 0.0943268 0.109168194

convlstm_cells.1.conv_candidate.weight f4 [32, 64, 3, 3]
00000000: dd91 7dbd 9401 b2bc 1c58 19bd 89c7 0bbd
00000010: 1da8 84bc b7c7 cbbc 4945 6cbd 3eae ecbc
00000020: 39c2 5ebb c5b3 ef3c ce1a 163c 3c0d 7a3c
00000030: f93b b33d 4a67 8d3c 54d1 883d 9263 e63d
00000040: 556a 6a3d 5a92 2f3d 361b 0a3d eae9 f83c
00000050: 5acd 173d 35ba 903d aecf c13c 6bca aa3d
00000060: 6a2f b53d 0bec ae3c 3ab8 b93d ed2e 18bd
00000070: 6951 56bd 7bd6 33bc b15f 43bd 0c5c aabd
00000080: f059 3ebd 6f88 8bbd 3bf5 b4bb d3e3 91bd
00000090: b2d9 63bd c52d 6cbc cc2a a2bd 1d3b cfbc
000000a0: 5f8f a8bd e745 c0bd 99a8 2abd c4ce 79bd
000000b0: 5e7e 96bc 0ac1 6dbc dda2 9bbd 3ab7 40bc
000000c0: b153 f1bc 845c 0cbd 7f88 5bbc 63ac 8fbd
000000d0: d739 63bd 020f 08bc f2e7 89bd 7346 2ebd
000000e0: e87e 0cbc 3082 0cbd d993 66bd 8d5e abbc
000000f0: 5c99 afbd 8ab9 79bd 1bc5 92bd e1db 3bbc
00000100: 83e1 74bd 7b3b 25bd 136a e7bc 230e 96bd
00000110: ff8b 65bd bd16 25bd e424 1bbd 246c 74bd
00000120: 5ed9 b13c 00da 943d cf10 713d ce5d 413c
00000130: 66ee a73d 0855 963d 70d5 303d fdfa 393d
00000140: 4e9f df3c f54f 56bd 944a 7ebd 5520 37bd
00000150: b2ec 1dbd b5db b9bd bbe9 16bc 3e22 85bd
00000160: c171 a4bd c84e 72bd 06c8 e83b 4cd0 c13c
00000170: 4b3e 093d fdee e93c 80c4 a53d 4b57 c63c
00000180: 8dd5 333d 566b 5c3d 577a ed3c fe36 cb3c
00000190: 38dd e93b 3a27 053d 62ce 48bc 351d 75bd
000001a0: bfc1 85bb 8818 febb 6717 f73c f5b8 843c
000001b0: 0b3e 86bd c811 8ebd 3d94 9fbd 2384 4dbb
000001c0: 5501 8fbc f791 97bd d5ee 59bc c843 bfbc
000001d0: fc14 43bd 6778 4f3d ef68 6b3d 4af5 103d
000001e0: eb8e 583d a711 273d bf8a 8e3d e88b 833c
000001f0: b74e 953c db1f 5b3d 8353 0b3d 7b65 203d
00000200: 37d1 663c 8a88 7c3d 13b6 9d3d e9d5 293d
00000210: bb36 873d 920e 633d b9a1 3a3c 252b 863c
00000220: c102 f73c 67eb 0cbd 0a83 b0bc 4619 2e3c
00000230: dc58 28bd 2aba 7b3a 17ac fa3c ac31 16bd
00000240: 857e 2d3d 42db a23d 0d6a b73d 93dd 943d
00000250: 50f6 6c34 97d7 313d cbfb ba3d a6bc a33c
00000260: 2a5e 933d a633 5f3d 9058 a93d f867 b13d
00000270: cb78 a63d 3913 8c3d e27d 7e3d 57d5 b23d
00000280: db14 a43d ccd4 913d b500 94bc 1545 b7bc
00000290: c12b 4ebc d72a 9dbd 1581 40bd 312e 17bd
000002a0: 065c 75bd fe83 fdbc a445 c0bc 4a29 883d
000002b0: 8ae6 713c 94d0 6b3d 2847 923d f491 eb3d
000002c0: afd4 603d 8e2e 2abc 0a4c 263d 94a5 d73c
000002d0: fcdf 0e3d 0137 973c 3056 943d c953 ae3d
000002e0: 7784 cb3b 982d 6d3d a4b6 653d 91df 373d
000002f0: 8aff c13c 525e 893d bed5 5a3d c1be 423d
00000300: 55ad 943c 7f58 8c3b 7395 0f3d d4a0 2c3c
00000310: a3b4 733c a7a0 033d 8d45 01bc e547 76bd
00000320: 6533 cabc b16d 80bd dca1 5abd 25f5 07bb
00000330: 7a49 6dbd 7ddd 4bbd fac7 1ebd c69a 54bd
00000340: 9d4a 39bd f396 d1bc 7e1a 8dbd e3f2 78bd
00000350: 6a16 adbd f26f 79bd 5345 42bd 5a93 32bc
00000360: b48d 493d 6fa3 8b3d 4b4b bfba 3753 7c3d
00000370: f894 873d 76a7 d03c 8323 c73d 2a74 ad3d
00000380: cabd 863b e6ad ec3c 2469 f23c 81df cd3d
00000390: de50 8d3d a907 353d cc1a 8c3d 9762 6e3d
000003a0: e2c3 a83d ba1b 6a3d d532 69bd 29c5 323a
000003b0: 1a57 f5bb 8cd4 b9bc 09bb 9bbd 8918 61bd
000003c0: 80a3 b3bd 1e8d 333a e486 98bd 683f 543d
000003d0: 65aa ab3d e8c7 433d 2af3 ba3d 0b13 aa3c
000003e0: 39eb 183d 5d5e 863d 3873 533d 3d57 7f3d
000003f0: 8d28 d83d 08f0 f33c 348c d23d 56dd 3e3d
-0.061906684 -0.021729268 -0.037437543 -0.03412584 -0.016193444 -0.024875505 -0.057683263 -0.028891679
-0.0033990277 0.029260525 0.009161664 0.015261944 0.08751673 0.017261166 0.06680551 0.1124946
0.057230312 0.04286418 0.033717357 0.030384976 0.037061073 0.07066766 0.0236586 0.083393894
0.08846934 0.021352788 0.090683416 -0.037154127 -0.052323733 -0.010976429 -0.04769868 -0.08318338
-0.04647249 -0.06813132 -0.005522398 -0.07123532 -0.055627532 -0.014415209 -0.07918319 -0.025296742
-0.08230471 -0.09388333 -0.041664694 -0.060988203 -0.018370803 -0.014511356 -0.07599423 -0.011762435
-0.029458852 -0.034267917 -0.013399242 -0.07015302 -0.055475082 -0.008304359 -0.06733693 -0.042547654
-0.008575179 -0.034303844 -0.056293342 -0.020919109 -0.08574173 -0.06096796 -0.07166501 -0.011465997
-0.059785377 -0.040339928 -0.028248822 -0.07326915 -0.056041714 -0.040304888 -0.03787698 -0.059673443
0.021710094 0.07268143 0.05885392 0.01180215 0.08199768 0.07340437 0.0431723 0.045405377
0.027297642 -0.052322347 -0.062082842 -0.04470857 -0.03855581 -0.09075109 -0.009210999 -0.06500672
-0.08029509 -0.059157163 0.007103923 0.023658894 0.033506673 0.028556341 0.0809412 0.024211546
0.04390483 0.0538133 0.028989 0.024806496 0.007136967 0.032508112 -0.012256237 -0.059842307
-0.004081934 -0.007754389 0.030162526 0.016201476 -0.065548025 -0.06936985 -0.07791946 -0.0031359277
-0.01745669 -0.074008875 -0.013301571 -0.02334775 -0.047627434 0.050651934 0.05747312 0.035390176
0.052870672 0.04078832 0.069600575 0.016057923 0.01822601 0.053497177 0.03401519 0.03915928
0.014087967 0.06165365 0.077007435 0.041463766 0.06602236 0.055433817 0.011391097 0.016377995
0.03015268 -0.034404185 -0.02154686 0.010626143 -0.041100368 0.0009602631 0.030599637 -0.036668465
0.042356987 0.07951976 0.089557745 0.072688244 2.2068821e-07 0.043418493 0.09130057 0.019987416
0.07195695 0.054492615 0.08268845 0.086624086 0.08128508 0.06839604 0.06213177 0.087320976
0.0801179 0.07120666 -0.018066743 -0.022371808 -0.012583674 -0.07674187 -0.046998102 -0.036909286
-0.059902214 -0.030946728 -0.023470707 0.066485 0.014764437 0.057571962 0.07142478 0.11502448
0.05489033 -0.010387076 0.04059986 0.026324071 0.034881577 0.018458845 0.072430015 0.085120745
0.0062108594 0.05790481 0.056082383 0.044890944 0.02368142 0.06707443 0.053426497 0.0475452
0.018149057 0.0042830105 0.035054635 0.010536391 0.01487461 0.032135632 -0.007890117 -0.060127158
-0.02468271 -0.06270922 -0.053377017 -0.0020745483 -0.0579314 -0.049771775 -0.03876493 -0.051905416
-0.045237172 -0.025584674 -0.068898186 -0.06077851 -0.08451541 -0.060897775 -0.047429394 -0.010899389
0.049207404 0.06818282 -0.0014594583 0.061602797 0.066202104 0.025470477 0.0972357 0.08469422
0.00411198 0.028891515 0.02959115 0.100523956 0.0690019 0.04419676 0.068410486 0.05819949
0.08240487 0.05715535 -0.056933243 0.000681954 -0.00748719 -0.022684358 -0.076040335 -0.05495504
-0.087714195 0.0006849336 -0.07447603 0.05181828 0.083821096 0.047798067 0.09128411 0.020761034
0.0373337 0.06560967 0.051623553 0.062339056 0.105546094 0.029777542 0.10280648 0.0465978

convlstm_cells.1.conv_candidate.bias f4 [32]
00000000: 8393 343d 390d 1b3d 6bf8 983c d55d 08bd
00000010: 92a3 8b3d 0a2e dabc 0564 0abd c504 fa3c
00000020: 00e7 71bd 5ce3 963d cf68 3fbd 5bc0 8f3c
00000030: 6283 733d 6181 a9bd b323 81bd b9da b9bb
00000040: e6da c8bc 84ee 8ebd f3b4 1dbd 7f1b 153d
00000050: 064b 7fbd b0a4 66bc c596 8bbd afb3 ef3c
00000060: bcd6 9fbd 3e42 94bd 1f1a a0bd e6f0 11bd
00000070: 168c 873d 68b0 083d b3ef 95bb 9975 04bd
0.04408599 0.037854407 0.018673142 -0.03329261 0.06818308 -0.026633281 -0.033786792 0.030519852
-0.05905819 0.07367584 -0.046730813 0.017547777 0.05945147 -0.0827663 -0.06305637 -0.0056718257
-0.024518441 -0.06979087 -0.038502645 0.036403175 -0.062327407 -0.0140773505 -0.068158664 0.029260485
-0.07804629 -0.07239197 -0.07817482 -0.03563013 0.06618516 0.03337136 -0.0045756935 -0.032338712

fc.weight f4 [1, 32]
00000000: 8d6a 913d c974 e33d 717d 1d3e 8ebf bdbd
00000010: 348e 8a3d b14c 30be f1e5 6cbd d814 063e
00000020: a44e 9cbd 9a21 903d 1389 43be 06f7 423d
00000030: 48b4 fd3d c5a4 99bd 1a41 18be 9fff 16be
00000040: e528 78bd dd95 b2bd 8f47 27be d08d b53c
00000050: 1b95 e7bd a683 ecbd c7c4 1ebe db33 753d
00000060: 6e84 26be 35ab d2bd e3f1 46be a3bf 4dbe
00000070: 05aa 9c3d 6a34 8d3d e449 41be ee17 3dbe
0.07100401 0.111062594 0.15379883 -0.09265052 0.06765404 -0.17216755 -0.057836477 0.13093889
-0.07632187 0.07037659 -0.19095258 0.04759886 0.123879015 -0.075021304 -0.14868584 -0.14745949
-0.060585875 -0.087199904 -0.16335891 0.022162348 -0.113077365 -0.115485474 -0.15504752 0.059863906
-0.16261455 -0.102865614 -0.1942821 -0.20092635 0.07649616 0.06894763 -0.18875843 -0.1846616
