outputs/stgcn_best.pt (torch, 21335 bytes, 5 tensors)

fc1.weight f4 [64, 9]
-0.21632099 -0.32978183 -0.29098254 0.06860018 0.16801718 0.13238528 -0.30305916 -0.2212461
-0.26382524 -0.22631094 0.6652053 -0.038476933 1.8986976 -0.1270063 -1.0086755 0.067412354
-0.12305759 -0.011321116 -0.14311087 0.059425145 0.043649107 -0.12432127 -0.022978216 0.061653733
-0.03189096 0.12756443 -0.09129104 -0.21991065 0.124314815 -0.18553072 0.838391 -0.2838689
-0.46747777 -0.20826593 -0.039397974 -0.00064602215 0.029011726 -0.100219935 0.011451334 -0.01532647
0.13307276 -0.056543738 -0.3285508 0.072686195 -0.33253977 0.007429905 0.55091417 0.18020478
1.8942927 -0.10646797 -1.1116548 -0.28459638 -0.4747402 -0.0021714156 -0.0008239448 0.23127154
-0.32338423 -0.2965657 -0.29963392 0.18013546 -0.26458228 -0.16316104 -0.043269843 0.00069105625
0.26355335 -0.038466483 0.051907092 0.09437415 0.28115925 0.15594223 -0.19912219 -0.28335866
0.16300632 0.39904955 0.10564863 1.5307783 -0.12465607 -0.64779365 0.16297753 -0.12240554
-0.003192652 0.32887414 0.10061899 -0.14970362 -0.14157078 0.27358374 0.29813007 0.2243065
-0.15304868 -0.16807339 -0.12071277 0.695844 0.27430362 2.4443195 0.26277483 -1.3231201
0.11343385 -0.37056896 -0.0012591715 0.20392552 0.2302554 0.13760403 0.10203454 -0.004904121
-0.08443758 -0.01440689 -0.24056196 -0.24176638 0.25193408 0.030719025 -0.15265866 0.29481256
-0.11306866 -0.14276356 0.12362358 -0.21106961 0.016509585 0.12233597 -1.9927121 -0.19067107
-3.6632962 -0.15268363 2.1516855 -0.08200511 2.1381853 0.0035208834 -0.051656604 -0.20651662
-0.09593916 0.12006876 0.07708475 -0.2997472 -0.1871202 -0.32426775 -0.26938182 0.13556537
-0.71049917 -0.028270818 -3.221819 0.11743808 1.156731 -0.0033094208 1.0028677 0.0032565254
0.013173968 -0.28863555 -0.058226854 0.021772534 0.30742803 0.32910565 0.17746738 -0.040366083
-0.06352615 -0.24837324 0.2737117 -0.2886153 0.033986896 -0.020662636 0.020346642 -0.040333748
-0.12141375 -0.17224726 -0.001996457 -0.34893602 0.1227161 -1.8986667 0.42748484 0.96842104
-0.042794105 0.91119593 0.0025411586 -0.17920014 -0.058104396 0.18624589 -0.101522654 0.16260457
-0.15329644 -0.27742478 -0.30674765 -0.18773481 -0.19214591 -0.32766926 -0.14147007 -0.058480144
-0.24483089 -0.018357038 -0.28619796 -0.049757957 -0.150866 -0.17408016 -0.10401759 0.4592306
0.24594946 0.25396726 0.26093048 -0.051851984 -0.13228747 -0.024313878 0.037162215 -0.011454016
0.2899569 -0.011434078 -0.2148807 0.12999865 -0.05065298 0.23813143 -0.073500276 0.03626438
0.6504844 -0.041619126 1.4322147 0.3125341 -0.65232366 -0.40772974 -0.19464335 0.0068843854
-0.041141123 0.09516165 -0.041205496 0.16467714 0.27984372 0.07540858 0.20403609 0.13250771
-0.17447023 0.23071402 0.66142315 -0.20146288 2.2564027 -0.19494231 -1.2594591 -0.24855338
-0.82627195 -0.002264299 -0.24463384 -0.20879452 -0.37708482 -0.006783982 0.017096203 -0.73602873
-0.20126078 -0.16545536 0.007927394 -0.24945286 0.08069653 -0.23738794 -0.1631545 -0.21279132
-0.016413402 0.052116044 -0.31467026 0.010717001 0.0593324 0.25887105 0.15198633 0.023991585
00000000: 4083 5dbe 2ad9 a8be aafb 94be 407e 8c3d
00000010: b20c 2c3e 0290 073e 922a 9bbe 568e 62be
00000020: 1a14 87be 0ebe 67be e54a 2a3f fd99 1dbd
00000030: 8608 f33f f10d 02be 471c 81bf 7d0f 8a3d
00000040: 9e05 fcbd 347c 39bc a88b 12be c867 733d
00000050: 68c9 323d 269c febd d03c bcbc a088 7c3d
00000060: 18a0 02bd 40a0 023e ccf6 babd 4230 61be
00000070: c498 fe3d c4fb 3dbe cba0 563f 4457 91be
00000080: 3f59 efbe aa43 55be c55f 21bd d059 29ba
00000090: 00aa ed3c 1c40 cdbd 609e 3b3c e01b 7bbc
000000a0: 3a44 083e 689a 67bd cf37 a8be 80dc 943d
000000b0: a742 aabe 8f76 f33b b608 0d3f 9a87 383e
000000c0: 2f78 f23f e10b dabd b44a 8ebf 9eb6 91be
000000d0: 2611 f3be 4f4e 0ebb 00fe 57ba 72d2 6c3e
000000e0: 9e92 a5be 76d7 97be 9e69 99be 6e75 383e
000000f0: 5477 87be b013 27be b83b 31bd 0028 353a
00000100: 77f0 863e 088f 1dbd 889c 543d 3c47 c13d
00000110: 1bf4 8f3e 52af 1f3e b0e6 4bbe 6314 91be
00000120: 21eb 263e 3950 cc3e 4f5e d83d 8bf0 c33f
00000130: ae4b ffbd ced5 25bf 95e3 263e c1af fabd
00000140: d03b 51bb 3162 a83e 5411 ce3d e84b 19be
00000150: eef7 10be 2b13 8c3e 81a4 983e 9ab0 653e
00000160: cbb8 1cbe 6e1b 2cbe 4238 f7bd d522 323f
00000170: 8671 8c3e bb6f 1c40 6c8a 863e 005c a9bf
00000180: 0250 e83d 37bb bdbe c90a a5ba dad1 503e
00000190: 12c8 6b3e 12e8 0c3e 7cf7 d03d c0b2 a0bb
000001a0: 9ced acbd e00a 6cbc e055 76be 9b91 77be
000001b0: 81fd 803e 77a6 fb3c 8d52 1cbe acf1 963e
000001c0: 8b90 e7bd 9c30 12be 5c2e fd3d a222 58be
000001d0: 1c3f 873c 488b fa3d 3111 ffbf 473f 43be
000001e0: 7273 6ac0 1959 1cbe 37b5 0940 4cf2 a7bd
000001f0: 07d8 0840 9fbe 663b e095 53bd 1879 53be
00000200: c07b c4bd 9ce6 f53d 9cde 9d3d 7778 99be
00000210: 709c 3fbe 6c06 a6be 6aec 89be a6d1 0a3e
00000220: 46e3 35bf 3498 e7bc 4832 4ec0 6083 f03d
00000230: c30f 943f dee2 58bb f85d 803f 6e6b 553b
00000240: a0d7 573c 0ac8 93be 487f 6ebd 505c b23c
00000250: 3567 9d3e 8980 a83e 02ba 353e e856 25bd
00000260: 001a 82bd 8e55 7ebe f123 8c3e 62c5 93be
00000270: d835 0b3d b044 a9bc 00ae a63c 0035 25bd
00000280: c6a7 f8bd 9661 30be fed6 02bb bea7 b2be
00000290: 9452 fb3d 8307 f3bf 4bdf da3e 71ea 773f
000002a0: df48 2fbd 2344 693f 9189 263b 3e80 37be
000002b0: e0fe 6dbd 3eb7 3e3e 1ceb cfbd d081 263e
000002c0: bef9 1cbe 9f0a 8ebe 070e 9dbe 8e3d 40be
000002d0: e6c1 44be 44c4 a7be 88dd 10be e088 6fbd
000002e0: f3b4 7abe 8061 96bc 8a88 92be 00cf 4bbd
000002f0: 9e7c 1abe 1242 32be 2d07 d5bd 4620 eb3e
00000300: 2dda 7b3e ff07 823e ae98 853e bf62 54bd
00000310: 5e76 07be e62d c7bc 6837 183d a0a9 3bbc
00000320: 3b75 943e 0056 3bbc b009 5cbe 5e1e 053e
00000330: 8079 4fbd bad8 733e 5087 96bd f589 143d
00000340: 2586 263f d178 2abd d052 b73f 7804 a03e
00000350: affe 26bf f4c1 d0be 9650 47be 6996 e13b
00000360: 9883 28bd 1ce4 c23d 18c7 28bd 20a1 283e
00000370: ad47 8f3e d06f 9a3d d6ee 503e 1ab0 073e
00000380: 53a8 32be 4c40 6c3e 0753 293f 494c 4ebe
00000390: e768 1040 f59e 47be f535 a1bf c784 7ebe
000003a0: 8f86 53bf a264 14bb 4b81 7abe 3bce 55be
000003b0: 4311 c1be 2a4c debb 560d 8c3c 616c 3cbf
000003c0: 4e17 4ebe 216d 29be e6e1 013c 9270 7fbe
000003d0: 3944 a53d d315 73be f911 27be f8e5 59be
000003e0: 6675 86bc a277 553d 761c a1be 5c96 2f3c
000003f0: 8806 733d bf8a 843e 4ea2 1b3e 008a c43c

fc1.bias f4 [64]
0.14728221 0.12055685 -0.2541464 -0.015520107 0.014922529 0.01106846 0.16171703 -0.07691252
-0.14879012 -0.10529101 0.33338204 0.19712082 -0.2332182 -0.36816788 -0.25926244 0.06833498
-0.026381165 0.30877724 -0.17518668 0.2415047 -0.3306865 0.15760036 -0.0066547096 -0.40383387
0.04813108 -0.37538543 -0.23033515 -0.33280542 0.33082137 0.0233185 -0.28497252 -0.22594188
0.3208547 -0.3122457 -0.3182559 0.10869326 0.029777257 0.19291165 -0.31737787 0.1313974
-0.09968209 0.2797159 -0.12152827 -0.09863414 0.22552523 0.17533848 -0.09193123 0.27571145
-0.27792642 0.025905456 -0.15444343 -0.07038672 -0.17637862 0.11101795 0.014169353 -0.45362705
-0.17765126 0.08621815 -0.0486867 -0.18318592 -0.12214157 -0.042716146 0.19332913 -0.06696871
00000000: 26d1 163e 83e6 f63d 7a1f 82be 0c48 7ebc
00000010: a07d 743c 7c58 353c 2699 253e 5084 9dbd
00000020: 705c 18be d0a2 d7bd 0db1 aa3e 0ada 493e
00000030: c0d0 6ebe 8080 bcbe 0cbe 84be 36f3 8b3d
00000040: 501d d8bc 0d18 9e3e 2364 33be 024d 773e
00000050: be4f a9be fd61 213e c00f dabb 50c3 cebe
00000060: 1825 453d 8532 c0be fadc 6bbe 7965 aabe
00000070: 6b61 a93e 7006 bf3c ebe7 91be 4f5d 67be
00000080: 1147 a43e abde 9fbe 70f2 a2be 929a de3d
00000090: 6fef f33c a28a 453e 5a7f a2be 0a8d 063e
000000a0: 2026 ccbd ec36 8f3e d0e3 f8bd b200 cabd
000000b0: 16f0 663e ee8b 333e 7146 bcbd 0d2a 8d3e
000000c0: 5f4c 8ebe ae37 d43c 6b26 1ebe ea26 90bd
000000d0: 999c 34be 615d e33d 9326 683c ce41 e8be
000000e0: 36ea 35be 2493 b03d b56b 47bd 1795 3bbe
000000f0: 5c25 fabd 20f7 2ebd 12f8 453e e426 89bd

fc2.weight f4 [64, 64]
0.022927716 0.043005455 0.04397428 -0.061363157 -0.07005754 -0.095278926 -0.03013423 0.031099886
-0.11005267 -0.019470468 0.07995346 0.09807423 0.0071784393 -0.07341141 -0.054365933 -0.026417933
0.11704114 0.12004654 -0.02724914 -0.031367853 -0.057459295 -0.006689781 0.012767419 -0.03373708
0.08725539 0.053358972 -0.034325883 0.017690234 0.039796695 0.053597897 -0.11013182 0.00045795506
-0.092350796 -0.022390977 0.0910932 0.0041590407 -0.13648467 0.014609233 -0.046592936 0.023290887
0.021052629 -0.092679136 0.07352671 0.0052271066 -0.04751485 0.21174903 -0.049509283 0.11405717
-0.07297361 0.06038438 -0.13729036 -0.037935343 0.012218176 -0.13091095 0.3229943 -0.094623774
-0.027092163 0.04805185 0.059789732 0.035617966 0.118329406 0.028759878 0.023691824 -0.07318628
-0.037295848 -0.14294954 0.06464286 0.044573087 -0.09693013 -0.07379698 0.021653041 -0.105570495
-0.014569088 0.115477666 0.03592013 -0.005300045 -0.063888915 0.08182151 -0.03939934 -0.0068471646
-0.047170863 0.11230047 0.06909522 -0.08887489 0.10566005 -0.03910132 0.022373512 -0.06013484
0.007677734 0.028298477 -0.06376972 -0.029754166 -0.06798217 0.08899045 0.059790038 0.041951675
-0.00676623 -0.08032283 -0.07715289 -0.080367856 -0.11034368 -0.077886656 -0.036605194 0.12319897
-0.0120111555 -0.06437347 0.099381745 0.08574604 0.039508898 0.065669216 0.0122770555 0.09135276
0.116614774 -0.059819598 -0.109511994 0.004591821 -0.11110477 -0.14734559 -0.20589402 0.04506273
0.05633381 0.0925996 -0.13746631 0.060542468 -0.07808806 0.015089942 -0.05270063 -0.026899904
-0.075653285 -0.10255911 -0.11922912 0.011614016 0.1071699 -0.02528381 0.091633886 0.070133716
0.043101978 0.12369636 -0.00790311 -0.038014174 -0.087047555 -0.012655703 0.06624812 0.03221707
-0.062386826 -0.07174583 -0.025676379 -0.056382462 0.059882 0.05905976 0.0067658573 -0.07324086
0.06746338 -0.14172523 -0.009988182 -0.023986733 0.074514434 -0.080540374 0.045923725 -0.1122897
-0.07629238 0.106145024 0.08890657 -0.06539045 -0.11405561 -0.044499874 -0.116881534 -0.07219446
0.036579534 -0.047026053 0.013739273 0.07352619 0.0638379 -0.39005417 -0.015317948 0.022039667
-0.046594873 -0.06881356 0.010937991 -0.026215157 0.05567079 -0.12989679 -0.13563515 -0.133125
-0.10829007 -0.014627203 -0.0059366664 0.036794238 0.04236047 -0.06230516 -0.002288076 -0.043826953
-0.06103103 0.08285699 0.08357884 -0.036716063 -0.022906989 -0.02689316 0.0988317 0.05485092
-0.02509603 0.11355692 -0.083826736 0.0701939 -0.026598822 0.031836845 -0.06915848 -0.010057142
0.025582224 0.06835759 -0.014615171 0.027922407 -0.0052402914 0.004687456 -0.10083228 -0.07152273
-0.016827255 0.0010107398 -0.13348572 -0.07073587 0.096227825 -0.11848554 0.009208493 -0.018652646
-0.022061527 -0.11585115 0.003499642 -0.025053702 0.037754666 -0.0024010837 0.084751576 0.059219033
-0.069032565 -0.066539295 0.004945472 -0.027301608 -0.06672207 -0.07093468 -0.044743124 0.021098003
0.10877602 -0.102463365 -0.021764709 0.0021603361 -0.10355456 -0.07481411 0.045012873 -0.0206237
-0.07184131 0.036050245 0.059925914 0.04085087 0.0994167 -0.02012113 -0.00016025521 0.07453577
00000000: e8d2 bb3c 7d26 303d 601e 343d ef57 7bbd
00000010: 547a 8fbd 9921 c3bd 10dc f6bc 30c5 fe3c
00000020: 4b63 e1bd 8880 9fbc a4be a33d 24db c83d
00000030: 1d39 eb3b b958 96bd d0ae 5ebd 6c6a d8bc
00000040: 44b3 ef3d f6da f53d 9739 dfbc 947b 00bd
00000050: 705a 6bbd f335 dbbb 702e 513c e42f 0abd
00000060: f4b2 b23d f08e 5a3d 4c99 0cbd 1ceb 903c
00000070: dc01 233d 7889 5b3d cb8c e1bd b019 f039
00000080: 6a22 bdbd 486d b7bc 128f ba3d 9048 883b
00000090: a3c2 0bbe 905b 6f3c 3cd8 3ebd 88cc be3c
000000a0: 9076 ac3c 8fce bdbd 2c95 963d 2648 ab3b
000000b0: ee9e 42bd bdd4 583e 3fca 4abd ce96 e93d
000000c0: 3073 95bd 9d55 773d d895 0cbe 1762 1bbd
000000d0: bf2e 483c 850d 06be 825f a53e 1cca c1bd
000000e0: 62f0 ddbc 04d2 443d 14e6 743d 25e4 113d
000000f0: b056 f23d d699 eb3c 5b15 c23c b0e2 95bd
00000100: 88c3 18bd 5d61 12be 7a63 843d 4592 363d
00000110: 4e83 c6bd df22 97bd b861 b13c 5835 d8bd
00000120: 2fb3 6ebc 8e7f ec3d fc20 133d 00ac adbb
00000130: 31d8 82bd 0992 a73d 3461 21bd 2e5e e0bb
00000140: 3c36 41bd cafd e53d cb81 8d3d 0a04 b6bd
00000150: 4c64 d83d b528 20bd a848 b73c f34f 76bd
00000160: 8095 fb3b 35d2 e73c b399 82bd 02bf f3bc
00000170: 3c3a 8bbd a040 b63d 66e6 743d 85d5 2b3d
00000180: 40b7 ddbb 4c80 a4bd 5602 9ebd e797 a4bd
00000190: defb e1bd 0a83 9fbd 54ef 15bd be4f fc3d
000001a0: 70ca 44bc 3dd6 83bd a888 cb3d 9f9b af3d
000001b0: 15d4 213d 957d 863d b425 493c 2817 bb3d
000001c0: bad3 ee3d 6505 75bd d347 e0bd fd76 963b
000001d0: e68a e3bd c3e1 16be e2d5 52be b293 383d
000001e0: 48be 663d dca4 bd3d f8c3 0cbe 61fb 773d
000001f0: a2ec 9fbd ce3b 773c 9edc 57bd 305d dcbc
00000200: 1cf0 9abd 830a d2bd 662e f4bd b748 3e3c
00000210: e47b db3d fe1f cfbc 8caa bb3d 44a2 8f3d
00000220: b38b 303d 8454 fd3d 0c7c 01bc c0b4 1bbd
00000230: fd45 b2bd de59 4fbc 18ad 873d 0cf6 033d
00000240: 5489 7fbd 7aef 92bd 4557 d2bc 4cf1 66bd
00000250: d446 753d a6e8 713d 20b4 dd3b 4eff 95bd
00000260: 3e2a 8a3d 6b20 11be 79a5 23bc d37f c4bc
00000270: 069b 983d 5af2 a4bd 841a 3c3d 24f8 e5bd
00000280: 2e3f 9cbd 9062 d93d a614 b63d 6eeb 85bd
00000290: fd95 e9bd 8045 36bd 965f efbd b0da 93bd
000002a0: 6cd4 153d 649e 40bd b01a 613c e694 963d
000002b0: 72bd 823d 2eb5 c7be 21f8 7abc 888c b43c
000002c0: 44da 3ebd 20ee 8cbd 4235 333c 2bc1 d6bc
000002d0: 0e07 643d aa03 05be f1e3 0abe ec51 08be
000002e0: 2fc7 ddbd f0a6 6fbc 5e88 c2bb 8eb5 163d
000002f0: 2c82 2d3d b233 7fbd 8cf3 15bb e483 33bd
00000300: acfb 79bd edb0 a93d 622b ab3d 9563 16bd
00000310: 70a7 bbbc 0b4f dcbc 4668 ca3d 5cab 603d
00000320: 3196 cdbc 8890 e83d 5aad abbd d2c1 8f3d
00000330: c6e5 d9bc 5a67 023d f6a2 8dbd b6c6 24bc
00000340: d091 d13c 10ff 8b3d 7874 6fbc 88bd e43c
00000350: c0b6 abbb 3b99 993b 2881 cebd 827a 92bd
00000360: 50d9 89bc cd7a 843a 7bb0 08be f8dd 90bd
00000370: 1813 c53d 8ca8 f2bd 38df 163c 6fcd 98bc
00000380: 60ba b4bc 5e43 edbd 405a 653b 6c3d cdbc
00000390: a3a4 1a3d 805b 1dbb 3c92 ad3d a88f 723d
000003a0: f260 8dbd c145 88bd a00d a23b 9fa7 dfbc
000003b0: 95a5 88bd 3446 91bd 9144 37bd b8d5 ac3c
000003c0: f6c5 de3d 50d8 d1bd e74b b2bc 6d94 0d3b
000003d0: 6a14 d4bd 2438 99bd 6b5f 383d 09f3 a8bc
000003e0: 8921 93bd 6ca9 133d e074 753d 3e53 273d
000003f0: fc9a cb3d 11d5 a4bc 2e0a 28b9 36a6 983d

fc2.bias f4 [64]
-0.04523568 -0.10639601 -0.1057567 -0.1343724 0.8889923 0.056619193 0.51568574 1.4726613
-0.003384773 0.9303174 0.5181498 1.4603959 1.3628457 2.0658374 0.9850988 1.6487896
-0.04735756 0.075691454 -0.30207744 0.1341035 1.3414515 1.3927281 0.04077503 -0.120033704
0.7735582 1.1296209 0.07880051 -0.024650265 0.015603836 -0.06271798 0.17592865 -0.09208418
0.07362856 0.35097536 1.0460244 -0.23274061 -0.12250824 0.19724907 -0.012125983 0.88378924
0.04698681 1.5845283 0.12734 -0.22254977 -0.017842475 1.6766212 -0.12625301 0.14959656
1.8575476 0.0761403 -0.06306128 1.3817973 0.024117168 -0.012166247 -0.2354248 0.071759105
2.19409 0.9586975 1.3292357 0.04749566 1.8631079 1.1727898 -0.24104488 0.8187344
00000000: 0c49 39bd 27e6 d9bd f896 d8bd eb98 09be
00000010: 0095 633f 87e9 673d fb03 043f 2a80 bc3f
00000020: 11d3 5dbb 4829 6e3f 77a5 043f 41ee ba3f
00000030: ba71 ae3f ae36 0440 6f2f 7c3f 8a0b d33f
00000040: 00fa 41bd 1f04 9b3d e5a9 9abe 6e52 093e
00000050: afb4 ab3f ea44 b23f b803 273d 3bd4 f5bd
00000060: e907 463f 6b97 903f 2962 a13d 5aef c9bc
00000070: 3ba7 7f3c 4972 80bd a426 343e a196 bcbd
00000080: 92ca 963d 0bb3 b33e 21e4 853f 8e53 6ebe
00000090: 9ae5 fabd a9fb 493e 0fac 46bc 0340 623f
000000a0: 3e75 403d d3d1 ca3f 6b65 023e 16e4 63be
000000b0: 622a 92bc 869b d63f 7848 01be d72f 193e
000000c0: 1fc4 ed3f 72ef 9b3d 4626 81bd bcde b03f
000000d0: 5e91 c53c f054 47bc 3313 71be 70f6 923d
000000e0: f86b 0c40 336d 753f 6524 aa3f cf8a 423d
000000f0: 527a ee3f fa1d 963f 78d4 76be 9498 513f

fc3.weight f4 [1, 64]
0.039972723 0.07421561 -0.07479393 -0.04652256 0.011500566 -0.039802343 0.015595169 0.0152871385
-0.055739503 0.009998808 0.025360959 0.014684019 0.018316938 0.058581196 0.010597019 0.016442887
-0.075867616 -0.075415656 -0.0018214848 -0.030485136 0.013163439 0.010957873 -0.023617458 -0.07034297
0.0130907325 0.011365959 -0.041547168 0.029155971 -0.06811249 0.07260828 0.03405411 0.07599308
-0.04902446 0.0533008 0.012490809 0.08540733 0.0049268934 -0.080580026 0.07660372 0.0107529415
0.040568415 0.010258863 -0.05714754 -0.07027174 0.041268174 0.013474568 -0.0032822816 0.03477268
0.026284913 -0.047760192 0.026644964 0.034930162 -0.055885598 -0.087186225 0.05004717 0.022677688
0.06914355 0.010845935 0.015476915 -0.04257734 0.013749621 0.009404709 0.0746694 0.019337377
00000000: 70ba 233d 5bfe 973d 8f2d 99bd 718e 3ebd
00000010: df6c 3c3c c807 23bd e182 7f3c e876 7a3c
00000020: 1b4f 64bd 0ad2 233c c9c1 cf3c 3d95 703c
00000030: 670d 963c d6f2 6f3d 1f9f 2d3c 3cb3 863c
00000040: 7b60 9bbd 8673 9abd e3be eeba f7bb f9bc
00000050: 77ab 573c a788 333c 6679 c1bc fa0f 90bd
00000060: 837a 563c 4a38 3a3c 5d2d 2abd 81d8 ee3c
00000070: 907e 8bbd a6b3 943d 537c 0b3d 43a2 9b3d
00000080: dfcd 48bd f151 5a3d 40a6 4c3c 0aea ae3d
00000090: c771 a13b 2407 a5bd 69e2 9c3d 1b2d 303c
000000a0: 112b 263d ca14 283c 8a13 6abd a1ea 8fbd
000000b0: d108 293d 6fc4 5c3c 8c1b 57bb cc6d 0e3d
000000c0: 7553 d73c 31a0 43bd 8a46 da3c ee12 0f3d
000000d0: 4ce8 64bd b18e b2bd 43fe 4c3d 8fc6 b93c
000000e0: 229b 8d3d 26b3 313c e392 7d3c 9465 2ebd
000000f0: 1746 613c 3516 1a3c 45ec 983d 6b69 9e3c
