outputs/stgcn_final.pt (torch, 54991 bytes, 7 tensors)

tgcn_cell.graph_conv_z.weight f4 [67, 64]
0	0x3cca23f6	0.02467535
1	0x3ea01c74	0.31271708
2	0xba5ad37d	-0.0008347554
3	0x3e0d8633	0.13820724
4	0xbe7a1735	-0.24422915
5	0x3e7cb743	0.24679284
6	0xbe2713c0	-0.16316128
7	0xbe1945c6	-0.14968023
8	0xbe7acc69	-0.24492039
9	0x3e75121b	0.23932688
10	0xbe487670	-0.1957643
11	0xbd98ec89	-0.074669905
12	0xbe9d5f56	-0.30736798
13	0x3df5a526	0.1199439
14	0xbe403f4b	-0.18774144
15	0x3e0a394f	0.13498424
16	0xbe1f6723	-0.15566687
17	0x3dab0930	0.08351362
18	0x3c9ea0d3	0.019363796
19	0xbdce6115	-0.10077111
20	0xbf08a216	-0.53372324
21	0xbcc6ee1e	-0.024283465
22	0x3ded5eec	0.115903705
23	0xbc431517	-0.011906884
24	0xbe11ed62	-0.1425071
25	0xbe583388	-0.21113408
26	0xbdfc7f47	-0.12328964
27	0x3e89db04	0.26924908
28	0x3b89124c	0.0041830894
29	0xbec39362	-0.38198382
30	0xbe6e2782	-0.23257259
31	0x3e17349e	0.14766166
32	0xbeba34c6	-0.36368388
33	0xbe916081	-0.2839394
34	0x3eb0a17f	0.34498212
35	0xbc1a88e9	-0.009432056
36	0x3eb9f6d1	0.36321118
37	0xbe99c40d	-0.30032387
38	0x3dbf6e05	0.093471564
39	0x3d18c311	0.037295405
40	0xbe5e5069	-0.21710362
41	0xbd6407ee	-0.055671625
42	0x3dabc56f	0.08387267
43	0x3e48fe51	0.19628264
44	0xbde1734c	-0.11008319
45	0x3ea91db2	0.33030468
46	0xbeac9a3e	-0.33711427
47	0xbe079f19	-0.13244285
48	0xbdc05ba4	-0.09392479
49	0x3e26d8e8	0.1629368
50	0x3db37e66	0.08764343
51	0x3e6eb676	0.23311791
52	0x3e835fdd	0.25659075
53	0xbcb65b00	-0.022260189
54	0xbec4fffc	-0.3847655
55	0x3de4698b	0.11152943
56	0xbded67ea	-0.11592086
57	0x3df57ac9	0.1198631
58	0xbe737708	-0.23775876
59	0xbde026e7	-0.1094492
60	0xbe299e4d	-0.16564293
61	0xbdcc6f07	-0.09982114
62	0x3d85041c	0.064949244
63	0x3e7e22d3	0.24817972
64	0xbdf03b8e	-0.11730109
65	0x3e2e3e22	0.1701589
66	0x3dc32639	0.09528775
67	0xbce34f7a	-0.027747858
68	0xbe5d3746	-0.21603116
69	0xbe27e9d8	-0.16397798
70	0xbe342694	-0.17592841
71	0x3e9b1817	0.30291817
72	0xbdac43c9	-0.084113665
73	0xbd0c9180	-0.034318447
74	0xbe88e82d	-0.26739636
75	0xbe765612	-0.2405627
76	0x3cf17af6	0.029477578
77	0xbdeed26c	-0.116612285
78	0x3e871286	0.2638132
79	0xbecb8b2b	-0.39754614
80	0x3dc8ccc6	0.098046824
81	0x3e8e7e26	0.2783062
82	0xbe0de67b	-0.13857453
83	0x3a57eb62	0.0008236674
84	0xbb5b3770	-0.0033449791
85	0xbdcd5662	-0.10026242
86	0xbe030808	-0.12796032
87	0x3e9305b4	0.2871529
88	0xbe294e3f	-0.16533755
89	0xbe589395	-0.21150048
90	0xbe9c80e7	-0.30567095
91	0x3ee3c363	0.44485006
92	0x3e92fd92	0.28709084
93	0x3d2f002d	0.042724777
94	0x3dea9ed4	0.11456075
95	0x3e805275	0.2506291
96	0xbe2c185d	-0.16806169
97	0xbec1de8c	-0.37865102
98	0x3ec1196e	0.37714714
99	0xbdf94dd6	-0.12173049
100	0x3e1094c3	0.14119248
101	0xbe87fdbe	-0.26560777
102	0x3d6d76e1	0.0579747
103	0xbe915678	-0.28386283
104	0x3df93178	0.121676385
105	0x3e3cc11c	0.1843304
106	0xbe2342ba	-0.15943423
107	0x3dec4335	0.11536256
108	0xbe557a28	-0.2084738
109	0x3e92fad7	0.28707
110	0xbe056314	-0.13026077
111	0x3e382a10	0.17984796
112	0xbe00e2d7	-0.12586533
113	0xbdaf3b4a	-0.0855623
114	0x3d8b7ee1	0.068113096
115	0x3e33cfe8	0.17559779
116	0x3e8faaed	0.28060094
117	0xbc8a1127	-0.016853882
118	0x3db4e923	0.0883353
119	0xbed80306	-0.42189807
120	0x3e2eefa8	0.17083609
121	0xbe8a7064	-0.27038872
122	0x3d1b4e59	0.037916515
123	0x3e2a63d6	0.16639647
124	0xbe6d3d88	-0.23168004
125	0xbed7872b	-0.42095312
126	0xbe541d25	-0.20714243
127	0x3e5033eb	0.20332305
128	0x3e581490	0.21101594
129	0x3e381c87	0.17979632
130	0xbe380652	-0.17971161
131	0xbe0ac083	-0.1355
132	0xbe351c2d	-0.1768653
133	0x3e35976c	0.17733544
134	0xbea6785a	-0.32513696
135	0x3ec2b404	0.38027966
136	0xbdd32650	-0.10310042
137	0xbe957eec	-0.29198396
138	0xbe49ec96	-0.19719157
139	0xbeb7f2a6	-0.35927314
140	0xbe78f81e	-0.24313399
141	0xbd1c0e5a	-0.038099624
142	0x3edd0991	0.4317136
143	0x3e311a32	0.17295149
144	0x3dab5780	0.08366299
145	0x3e40f982	0.1884518
146	0xbde23b32	-0.11046447
147	0x3e2b47b6	0.16726574
148	0xbbc4c75f	-0.006005212
149	0x3e30bc88	0.17259419
150	0xbcb367e7	-0.02190013
151	0x3e91b232	0.28456265
152	0x3db0c023	0.08630397
153	0xbdc63eaf	-0.09679925
154	0xbe961338	-0.29311538
155	0xbdd30ab4	-0.10304776
156	0xbe7211fa	-0.2363967
157	0x3e5b7b08	0.21433651
158	0x3e012f99	0.12615813
159	0x3ea89de0	0.3293295
160	0x3e4d1e1c	0.20031017
161	0xbd1768b0	-0.036965072
162	0x3e1e4d3d	0.15459152
163	0xbe8ccc19	-0.27499464
164	0x3e1707c6	0.14749059
165	0x3dc2cd4e	0.09511815
166	0xbd0d9cf2	-0.034573503
167	0x3dea524b	0.114414774
168	0xbda3856c	-0.079844326
169	0x3c0826b8	0.0083100125
170	0x3e9e1233	0.3087326
171	0xbdc9eff2	-0.09860219
172	0x3ed693c5	0.41909614
173	0xbdebe88b	-0.115189634
174	0x3d914714	0.07093635
175	0x3e02540f	0.12727378
176	0xbdd3034a	-0.10303362
177	0x3e59a25a	0.21253338
178	0xbf255e85	-0.6459735
179	0xbdd54b48	-0.104147494
180	0x3de1d44c	0.110268205
181	0xbe93bd83	-0.28855523
182	0xbe9ee91a	-0.31037217
183	0xbe897c0a	-0.26852447
184	0x3eb529a1	0.35383323
185	0xbe4fcade	-0.20292231
186	0xbed1d7c9	-0.40984944
187	0xbe8cc3c2	-0.274931
188	0xbe7e3e3e	-0.24828431
189	0xbce83d26	-0.02834947
190	0xbe18052b	-0.14845721
191	0xbe6d4cfb	-0.23173897
192	0xbe3f0e34	-0.18657762
193	0x3dae5678	0.08512586
194	0xbe92f8a8	-0.28705335
195	0x3e00c45e	0.12574908
196	0x3e144adf	0.14481686
197	0xbe683e28	-0.2267996
198	0x3dc24de2	0.09487511
199	0xbe9a98ec	-0.30194795
200	0x3e0054ce	0.1253235
201	0xbd30d624	-0.04317297
202	0xbd6d7a9e	-0.057978265
203	0xbee2cfd2	-0.4429918
204	0x3de89263	0.11356046
205	0x3e29029e	0.16504905
206	0xbe5aba8a	-0.21360222
207	0x3e4564c1	0.19276716
208	0xbe16b70b	-0.14718263
209	0x3c8bb6da	0.017054964
210	0x3d8a704f	0.067597024
211	0xbec4a147	-0.38404295
212	0x3e05d8b9	0.13070954
213	0xbd90f35e	-0.070776686
214	0x3e1c9872	0.15292528
215	0x3dce13b3	0.10062351
216	0xbd56b3fd	-0.052417744
217	0xbd0f2792	-0.034949847
218	0x3e6fc190	0.23413682
219	0xbd9d09fc	-0.0766792
220	0xbe90e53d	-0.28299895
221	0x3d9f82ec	0.07788643
222	0xbe93e4c7	-0.2888548
223	0x3dcbcf58	0.09951657
224	0xbd8d6a59	-0.0690505
225	0xbdc18b55	-0.094504036
226	0xbdf61a42	-0.12016727
227	0x3eba4759	0.3638256
228	0xbd83e15a	-0.06439467
229	0xbebe015b	-0.3711041
230	0xbe045ac5	-0.12925251
231	0xbda54f49	-0.08071763
232	0xbc8670fa	-0.016411293
233	0x3d27dbc3	0.040981065
234	0xbdbc46fc	-0.09193227
235	0xbe7fb0cd	-0.24969788
236	0xbbbe39e4	-0.005805241
237	0xbe946907	-0.2898638
238	0xbe9bfd46	-0.3046667
239	0x3eaaccd9	0.3335941
240	0xbea8a1ca	-0.32935935
241	0x3dca098e	0.09865104
242	0xbec62e01	-0.38706973
243	0xbe580905	-0.2109719
244	0xbcd67a26	-0.026181292
245	0xbcd8ce4f	-0.026465563
246	0xbdc4b780	-0.09605312
247	0x3e452f57	0.1925634
248	0xbc3e8d92	-0.011630433
249	0xbd8fd901	-0.07023812
250	0xbe02ddb9	-0.12779893
251	0xbe26c7b4	-0.16287118
252	0x3cd70d18	0.02625136
253	0xbd657643	-0.056020986
254	0xbe1b8b9a	-0.15189973
255	0xbea5c98c	-0.3238033

tgcn_cell.graph_conv_z.bias f4 [64]
0	0x3d7519a1	0.059838895
1	0x3e1277f4	0.14303571
2	0x3e18aa4c	0.14908713
3	0xbd97b5eb	-0.07407745
4	0xbcb2f689	-0.021846073
5	0x3d9b3cd7	0.07579964
6	0xbd3d5c0a	-0.046230353
7	0x3dab52e0	0.083654165
8	0xbd6a27e7	-0.05716696
9	0xbd15e200	-0.036592484
10	0xbd9bd7b7	-0.07609504
11	0x3d29a28e	0.04141479
12	0x3d8fe3a0	0.07025838
13	0x3d0fb40e	0.035083823
14	0x3c2f8780	0.010713458
15	0xbceda14c	-0.029007576
16	0xbd4f0e2e	-0.050550632
17	0x3d3c6e68	0.04600373
18	0xbd77e889	-0.060524497
19	0x3d4a8ab0	0.04944867
20	0x3d6418b8	0.055687636
21	0x3d22dda0	0.03976214
22	0x3cdb25e8	0.026751474
23	0x3e51afcc	0.20477217
24	0xbc20a076	-0.009803882
25	0x3c39d73c	0.01134282
26	0x3dac77fa	0.08421321
27	0xbc9b9b3c	-0.01899492
28	0x3ddaee0d	0.10689936
29	0xbd880cb1	-0.06643046
30	0xbc237ec5	-0.009978955
31	0x3d96ac1a	0.073570445
32	0xbbb1c351	-0.005424895
33	0xbca9d2e0	-0.020730436
34	0x3d97da1f	0.0741465
35	0xbd8ad7c3	-0.067794345
36	0x3e14651c	0.14491695
37	0x3c9afca9	0.018919306
38	0x3d89f461	0.06736065
39	0xbc5a5450	-0.013325766
40	0x3d24f540	0.04027295
41	0x3da5f223	0.081028245
42	0x3d8e4662	0.06947018
43	0x3dd978c4	0.10618737
44	0xbcf4d276	-0.029885512
45	0x3d980738	0.07423252
46	0x3db61405	0.08890537
47	0xbdd00e42	-0.101589695
48	0xbc4672d3	-0.012112337
49	0x3d938c8c	0.072045416
50	0x3d118ba6	0.03553357
51	0x3bf67f73	0.0075225173
52	0x3d90c988	0.07069689
53	0xbc730703	-0.014833215
54	0xbd90432a	-0.070440605
55	0xbc7b3c1e	-0.015334157
56	0xbdf8d9e0	-0.12150931
57	0xbd113f2b	-0.035460632
58	0xbd0f8e49	-0.035047803
59	0xbbe1258a	-0.00687093
60	0xbcadc0ed	-0.021210158
61	0xbdf26c27	-0.11837035
62	0x3c99a73e	0.018756505
63	0xbd9f77bd	-0.0778651

tgcn_cell.graph_conv_r.weight f4 [67, 64]
0	0x3ca43741	0.020045878
1	0x3ed86c2c	0.4227003
2	0x3dda7643	0.10667088
3	0x3d8b0ed8	0.067899406
4	0xbd955a90	-0.07292664
5	0x3e91a93a	0.28449422
6	0xbe03167c	-0.12801546
7	0xbb80584e	-0.0039167767
8	0x3e54b224	0.2077108
9	0xbe182b32	-0.14860228
10	0xbea4b312	-0.3216787
11	0x3c0e08d0	0.008669093
12	0x3cdf10d3	0.027229702
13	0xbe25d48e	-0.16194364
14	0x3ea7b097	0.32751915
15	0xbea2530f	-0.31703994
16	0xbd5cda37	-0.053919043
17	0x3caeaf4e	0.021323826
18	0x3e375941	0.17905141
19	0xbee4b521	-0.4466944
20	0xbd8ee855	-0.069779076
21	0x3d57de58	0.052702278
22	0xbd5e0774	-0.054206327
23	0x3f17beeb	0.5927569
24	0x3e16e5f5	0.14736159
25	0x3f07adf4	0.52999806
26	0x3da53b95	0.08068005
27	0xbf0f4034	-0.5595734
28	0x3e8d1b9b	0.27560124
29	0x3e823e0c	0.25437963
30	0xbcbc48b9	-0.022983896
31	0x3dc94100	0.09826851
32	0x3e1f1815	0.1553653
33	0xbe6009ea	-0.21878782
34	0xbd01ee82	-0.0317216
35	0xbe4da473	-0.20082264
36	0x3d8f9eea	0.07012732
37	0x3dd137bd	0.10215709
38	0xbde2d0d5	-0.11074988
39	0xbee4b9ea	-0.4467309
40	0xbe8fb575	-0.28068128
41	0xbdcdbe84	-0.100461036
42	0xbe9ff347	-0.31240293
43	0x3db3f83b	0.087875806
44	0x3d798e12	0.060926504
45	0xbdb6c867	-0.089249425
46	0x3e4adfb8	0.19811904
47	0xbe50056c	-0.20314568
48	0x3d55a2f4	0.052157357
49	0xbe4289b1	-0.18997838
50	0xbeb5e65a	-0.35527307
51	0x3dcc1c55	0.099663414
52	0x3d83c332	0.06433715
53	0xbea98023	-0.33105573
54	0x3e795476	0.24348626
55	0x3df8684f	0.1212927
56	0xbc8f647c	-0.01750397
57	0x3ec7deb5	0.390371
58	0x3e644538	0.2229203
59	0xbeac90ac	-0.33704126
60	0xbe7c3156	-0.24628195
61	0x3e11971f	0.14217804
62	0xbe903f57	-0.28173324
63	0x3eb3999c	0.35078132
64	0xbdfef986	-0.124499366
65	0x3e9f7f41	0.31151775
66	0x3d0edc6e	0.034878187
67	0x3dbd52f1	0.092443354
68	0x3eb00866	0.34381407
69	0x3e0d04a6	0.13771304
70	0xbeabced9	-0.3355625
71	0x3ea238c2	0.31683928
72	0x3e6f5503	0.23372273
73	0x3df8c0f6	0.121461794
74	0xbe823f88	-0.25439095
75	0x3e7b9fc5	0.24572666
76	0xbddadc3e	-0.10686539
77	0x3d6e577e	0.058188908
78	0xbd751069	-0.059830103
79	0xbeac0744	-0.33599293
80	0x3caaeda5	0.02086527
81	0x3dc5cad6	0.096578285
82	0xbd5a1a73	-0.05324788
83	0xbe79008e	-0.24316618
84	0x3eb717d2	0.3576036
85	0xbe7a051e	-0.24416015
86	0xbd41bd1c	-0.04729949
87	0x3f018bc8	0.50603914
88	0x3b08a1b5	0.0020848338
89	0x3f01ba00	0.5067444
90	0x3dd9cf47	0.10635238
91	0xbd3afa4b	-0.045648854
92	0x3e551302	0.20808032
93	0x3e18151a	0.148518
94	0xbe8ae33d	-0.27126494
95	0x3cbee744	0.023303635
96	0x3e91f76c	0.2850908
97	0xbe0ced04	-0.1376229
98	0x3e333a65	0.17502744
99	0x3e88c17b	0.26710114
100	0x3e53281a	0.20620766
101	0x3e073780	0.13204765
102	0x3c7f8ea2	0.015597971
103	0xbcf43f32	-0.02981529
104	0xbec210bc	-0.37903392
105	0x3e44caae	0.19217941
106	0xbe0c5d6b	-0.13707511
107	0x3e02db5d	0.12778993
108	0x3d84dcb6	0.0648741
109	0x3e115cb1	0.14195515
110	0x3ea03ef8	0.3129804
111	0x3ea83a1f	0.32856843
112	0xbd5b66c3	-0.053564798
113	0x3ec3972c	0.38201272
114	0xbf195c88	-0.59906816
115	0xbe3b3359	-0.18281306
116	0xbec55ace	-0.3854584
117	0xbd9f1574	-0.07767764
118	0x3e6ba242	0.23011115
119	0x3de775d6	0.11301772
120	0xbe118bad	-0.14213438
121	0x3e9b8230	0.30372763
122	0xbeaaa991	-0.33332494
123	0x3e45e733	0.19326477
124	0xbda97016	-0.08273332
125	0xbe2baf48	-0.16766083
126	0xbdf964da	-0.12177439
127	0x3eb766fa	0.35820752
128	0x3e913436	0.28360146
129	0x3dd4604f	0.10369932
130	0x3e8a5fd2	0.2702623
131	0x3e7519d9	0.23935641
132	0x3eda1fb0	0.426023
133	0xbce42e17	-0.027854009
134	0x3e70e1ab	0.23523585
135	0xbe105b23	-0.14097266
136	0x3eb7dd24	0.35910904
137	0xbea0cdd2	-0.31407028
138	0x3c37998c	0.011206042
139	0x3ef7f08d	0.48425713
140	0x3ee408bd	0.44537917
141	0xbda80510	-0.082040906
142	0xbd2fe26a	-0.042940535
143	0xbd6b6d45	-0.057477254
144	0x3e1e30d5	0.15448315
145	0xbe9bac99	-0.3040512
146	0x3dd3d072	0.10342492
147	0xbe4fc99d	-0.20291753
148	0x3e60988c	0.21933192
149	0x3e229028	0.15875304
150	0x3e85662a	0.26054507
151	0x3edb9d0b	0.42893252
152	0x3e8f09cd	0.27937165
153	0x3f1a9267	0.6037964
154	0xbe8a5de8	-0.2702477
155	0xbee25c9b	-0.44211277
156	0x3d47fdb3	0.04882593
157	0xbd4c9ff2	-0.049957223
158	0x3e0e1964	0.13876873
159	0xbc6bf018	-0.0144005045
160	0x3d126951	0.03574497
161	0xbeb1f568	-0.34757543
162	0x3dc8754f	0.09788
163	0xbe1a591f	-0.1507306
164	0x3caa06b3	0.020755148
165	0x3e877ea8	0.2646382
166	0x3e72a08d	0.23694058
167	0xbd78bdae	-0.060727768
168	0x3da8500a	0.08218391
169	0x3d9544d1	0.07288516
170	0xbf0cd29e	-0.55008876
171	0x3e1960a3	0.1497827
172	0xbde66d1b	-0.11251279
173	0x3eeb4ee6	0.45958632
174	0xbdcf2599	-0.10114593
175	0x3e8fa576	0.28055924
176	0xbe490e5a	-0.19634381
177	0x3d424150	0.047425568
178	0xbed56124	-0.41675675
179	0xbd5aba23	-0.05340017
180	0xbdb00840	-0.085953236
181	0x3e6a0d42	0.2285662
182	0xbda94e09	-0.08266837
183	0x3e037e30	0.12841105
184	0xbe5089de	-0.20365092
185	0xbd3b892b	-0.04578511
186	0x3caebdfd	0.021330828
187	0x3e3f47eb	0.18679778
188	0xbe501db8	-0.20323837
189	0xbdac2d63	-0.08407094
190	0xbd5d474c	-0.054023072
191	0x3da93b4a	0.082632616
192	0x3e5a7c6b	0.21336524
193	0xbe7b7666	-0.24556884
194	0x3e6f0abe	0.23343942
195	0x3d856ba4	0.065146714
196	0xbdd3137d	-0.103064515
197	0xbd92a1bc	-0.07159755
198	0xbe89431b	-0.2680901
199	0x3d7a7648	0.061147958
200	0xbdc18f3e	-0.094511494
201	0xbe5069e0	-0.20352888
202	0x3d902e55	0.07040087
203	0xbced8e38	-0.02899848
204	0x3c9bca11	0.019017251
205	0xbe833cf3	-0.25632438
206	0xbe9a6d75	-0.30161634
207	0x3e865c80	0.26242447
208	0x3dec0826	0.11524992
209	0xbc8d4295	-0.017243663
210	0x3dd4a9bb	0.10383936
211	0xbe154100	-0.14575577
212	0x3e584201	0.21118928
213	0xbd8bae25	-0.06820325
214	0xbeaba044	-0.3352071
215	0xbe768e6f	-0.24077772
216	0xbea6ec8c	-0.32602346
217	0x3d16a950	0.036782563
218	0xbe7b2cf2	-0.24528864
219	0x3e06249a	0.130999
220	0xbd08ba69	-0.0333809
221	0xbda9610a	-0.08270462
222	0x3d76a743	0.060218107
223	0xbefbeed1	-0.4920564
224	0x3e39ba09	0.18137373
225	0x3e442c4e	0.19157526
226	0xbe75654e	-0.23964426
227	0xbe50cbc7	-0.20390235
228	0xbe6689fa	-0.22513571
229	0xbeadfd76	-0.33982438
230	0x3cae280f	0.021259336
231	0x3ea52521	0.3225489
232	0x3e173a45	0.14768322
233	0x3d7f1c7a	0.062283017
234	0x3d706554	0.058690384
235	0xbb338e75	-0.0027398143
236	0x3e23064c	0.15920371
237	0x3e55c502	0.20875934
238	0xbe2ea987	-0.17056857
239	0xbda1d4af	-0.07901894
240	0x3df1f99c	0.11815187
241	0xbbf5b441	-0.0074982946
242	0x3e09c5de	0.13454387
243	0x3e2dfbcf	0.16990589
244	0xbe7e1ea7	-0.2481638
245	0x3e7c2df4	0.24626905
246	0xbd857470	-0.06516349
247	0xbdd764ce	-0.10517274
248	0xbe3c9a30	-0.18418193
249	0x3ca5ea0f	0.02025321
250	0xbe8f8706	-0.28032702
251	0xbdd937a0	-0.10606313
252	0xbdf38152	-0.118899
253	0x3c79735e	0.01522526
254	0x3e809dd4	0.25120413
255	0x3e817c49	0.25290135

tgcn_cell.graph_conv_r.bias f4 [64]
0	0xbca27dc1	-0.019835355
1	0x3da033a6	0.07822351
2	0x3d922203	0.071353935
3	0x3bf70580	0.0075384974
4	0x3b0f3e9c	0.0021857386
5	0x3d441735	0.047873694
6	0xbcd1ca5d	-0.02560919
7	0x39cf45dc	0.00039534166
8	0x3adeb883	0.0016992245
9	0xbbc06b9e	-0.005872204
10	0x3cfdbffc	0.030975334
11	0x3ca80352	0.020509396
12	0x3c525fb6	0.012840202
13	0x3c3c91a0	0.011509329
14	0x3d2c0a3a	0.04200194
15	0xbc4e1164	-0.012577388
16	0x3cb6d0c6	0.022316348
17	0x3db568e5	0.08857898
18	0x3d4cf896	0.050041758
19	0x3abdba07	0.0014474996
20	0x3c809adf	0.015698848
21	0x3ced6745	0.028979907
22	0x3c21392a	0.009840289
23	0x3e36740c	0.17817706
24	0x3d78938c	0.060687587
25	0xbc9973eb	-0.018732032
26	0x3dcc9d24	0.0999091
27	0xbc1e22eb	-0.00965188
28	0x3cb14f02	0.02164412
29	0xbd138f8b	-0.036025565
30	0x3c382e6b	0.011241536
31	0x3d64a19f	0.055818196
32	0x3e35d30f	0.17756294
33	0x3d813cc0	0.06310415
34	0xbce7abcd	-0.028280163
35	0x3ccdb9bb	0.025112977
36	0x3d2d9f71	0.042388383
37	0x3de58450	0.11206877
38	0x3cb8ae00	0.022543907
39	0x3cba9d29	0.022780018
40	0x3d9eb717	0.07749765
41	0x3ccbe023	0.02488715
42	0x3cb35835	0.021892646
43	0x3c71685f	0.014734357
44	0xbc0c3846	-0.0085583385
45	0x3d5455e2	0.051839717
46	0xbb49a618	-0.0030769166
47	0xbc6658ca	-0.014059255
48	0x3b60f405	0.0034325134
49	0x3d921588	0.07133013
50	0x3d431600	0.047628403
51	0xbbdce839	-0.0067415503
52	0x3d62cdc0	0.055372
53	0x3d03bb88	0.032161266
54	0xba72b179	-0.0009258013
55	0x3b8c4457	0.0042806077
56	0x3c717eb6	0.014739683
57	0x3cd48a03	0.025944715
58	0x3c8f355d	0.0174815
59	0x3d18668b	0.037207168
60	0x3d05f46d	0.032703806
61	0x3d1737ce	0.036918454
62	0x3d0aabea	0.033855356
63	0xbc967fd6	-0.018371504

tgcn_cell.graph_conv_h.weight f4 [67, 64]
0	0x3d8012b2	0.06253566
1	0xbc6e0a4a	-0.01452882
2	0xbe36dd93	-0.17857961
3	0xbcd29d9e	-0.025709923
4	0x3dc735b4	0.0972704
5	0x3e7e0f92	0.24810627
6	0xba731bcd	-0.0009273857
7	0x3e608f6a	0.21929708
8	0xbe6f188e	-0.2334921
9	0x3ca4e530	0.020128816
10	0xbd30a4be	-0.04312586
11	0xbd914844	-0.07093862
12	0x3e23dc03	0.16001897
13	0x3e13d37d	0.14436145
14	0x3e98d972	0.29853398
15	0xbe26e7ae	-0.16299316
16	0xbe17dd58	-0.1483053
17	0xbe227fd2	-0.15869072
18	0x3e4a31ab	0.1974551
19	0xbe34137c	-0.17585558
20	0xbea35c92	-0.31906563
21	0xbdea975d	-0.114546515
22	0xbdd21073	-0.10257044
23	0x3e0ca28d	0.13733883
24	0xbe167b97	-0.14695583
25	0xbe8bf8cd	-0.27338257
26	0x3e7edc53	0.24888735
27	0xbbb91ecd	-0.0056494237
28	0x3e67f89b	0.22653429
29	0x3e86861e	0.26274198
30	0xbe575210	-0.21027398
31	0xbd5cfb45	-0.053950567
32	0x3ea985e9	0.33109978
33	0x3d932efa	0.071866944
34	0x3e9dd052	0.30822998
35	0x3e867b4e	0.2626595
36	0xbdd74526	-0.10511236
37	0x3e9a3514	0.3011862
38	0x3e227606	0.15865335
39	0x3da10bd7	0.078635864
40	0x3e25bb80	0.16184807
41	0xbe46c0d5	-0.19409497
42	0xbd4d6007	-0.050140407
43	0x3e893772	0.26800114
44	0x3eaa51c2	0.332655
45	0x3e81480b	0.25250277
46	0xbc8d7f99	-0.017272757
47	0x3d5516d2	0.052023716
48	0x3e6a1e16	0.2286304
49	0xbdba94e1	-0.09110428
50	0x3e3f9040	0.18707371
51	0xbdfc80df	-0.12329268
52	0x3e3cb394	0.18427879
53	0x3e28dce5	0.16490515
54	0x3eb0612a	0.3444913
55	0x3e21f336	0.15815434
56	0x3d600fd8	0.05470261
57	0xbbf20241	-0.0073855226
58	0xbd3d6a04	-0.046243683
59	0xbcc3865e	-0.023867782
60	0xbe2ad488	-0.16682637
61	0x3bc7dc92	0.006099292
62	0x3e379f0f	0.1793177
63	0xbe1878b4	-0.14889795
64	0x3e951c82	0.29123312
65	0x3d029b7e	0.03188657
66	0x3dce315b	0.100680076
67	0x3e8315a0	0.25602436
68	0x38934dd4	7.024003e-05
69	0xbd6dc2d1	-0.05804712
70	0xbd5a11e8	-0.053239733
71	0x3e2ac25e	0.16675708
72	0xbc26bf08	-0.010177381
73	0x3e2fa410	0.17152429
74	0xbe94d042	-0.29065138
75	0x3e1000a6	0.14062747
76	0x3d68e663	0.05686034
77	0x3e2db839	0.16964807
78	0xbd8be072	-0.06829919
79	0xbe0d6cc6	-0.13811025
80	0xbd96e08b	-0.07367047
81	0xbd54d514	-0.05196102
82	0x3e89435f	0.26809213
83	0x3d068b1a	0.0328475
84	0x3c0b4d69	0.008502343
85	0xbe90d3fd	-0.28286734
86	0x3e83e310	0.25759172
87	0xbe72d79e	-0.23715064
88	0xbdb0dceb	-0.08635887
89	0x3e28f6fc	0.16500467
90	0xbd6b8f29	-0.057509575
91	0x3dd364e5	0.103219785
92	0x3e90bba7	0.28268167
93	0x3e6f8c2e	0.23393318
94	0x3c6d03b3	0.014466214
95	0xbd13503b	-0.035965186
96	0xbe38b5b7	-0.18038069
97	0x3e9730e2	0.29529482
98	0xbe256532	-0.16151884
99	0x3ea51db7	0.32249233
100	0xbe15a5ac	-0.1461398
101	0x3e2df7dd	0.16989084
102	0xbe1ad9f2	-0.15122202
103	0xbc1973bb	-0.009365971
104	0xbdf38298	-0.11890143
105	0xbd2b6932	-0.04184837
106	0x3e82043f	0.25393865
107	0xbd3b216f	-0.04568618
108	0x3d65d4d5	0.056111176
109	0x3e47e597	0.19521175
110	0xbb1bc6ed	-0.0023769692
111	0xbe1a57ed	-0.15072604
112	0xbe2b8996	-0.16751704
113	0xbe3a06fc	-0.18166727
114	0xbe8dfc9c	-0.27731788
115	0xbdb2975f	-0.08720278
116	0x3d27fa9e	0.04101049
117	0xbe0387ed	-0.1284482
118	0xbe486c4b	-0.1957256
119	0xbe9be392	-0.3044706
120	0x3e4462f4	0.19178373
121	0x3d939fb0	0.07208192
122	0xbebc7e0d	-0.3681492
123	0x3df94fd9	0.12173433
124	0xbe8f5525	-0.27994648
125	0xbebff025	-0.37487903
126	0x3e700711	0.23440196
127	0x3cf0b83b	0.029384723
128	0xbe905b91	-0.2819486
129	0xbe90b371	-0.28261903
130	0x3da6d245	0.081455745
131	0x3def8274	0.11694804
132	0x3e3e2dc7	0.1857215
133	0x3e9f94fb	0.3116835
134	0x3ea47750	0.32122278
135	0x3de03b63	0.10948827
136	0xbe91e7d4	-0.28497183
137	0x3e02528c	0.12726802
138	0xbdff09c9	-0.12453038
139	0x3e36bb1a	0.17844811
140	0x3cc65daf	0.024214594
141	0x3e0cbe44	0.13744456
142	0xbd4f8d44	-0.05067183
143	0xbde232e6	-0.11044864
144	0xbdc68866	-0.09693985
145	0xbd30bec0	-0.043150663
146	0x3e07d07b	0.13263123
147	0xbdb794aa	-0.08963902
148	0x3e6435bc	0.22286123
149	0xbe9b38a4	-0.3031665
150	0x3ea3b76e	0.31975883
151	0xbe173033	-0.1476448
152	0x3e5dcba1	0.2165971
153	0x3c379a37	0.011206201
154	0x3e8ed637	0.27897808
155	0xbc20f6b9	-0.009824448
156	0xbdb456c8	-0.08805615
157	0xbe1f8a35	-0.15580066
158	0x3e0773ca	0.13227764
159	0x3e9da7da	0.30792123
160	0x3da05b5d	0.07829926
161	0x3e56baff	0.20969771
162	0x3e928c3a	0.2862261
163	0xbc476565	-0.01217017
164	0xbe2dc7a7	-0.16970693
165	0xbe8e2480	-0.27762222
166	0x3dd1a426	0.10236387
167	0xbe360fd2	-0.17779472
168	0xbd2cf310	-0.04222399
169	0xbeb11945	-0.34589592
170	0x3e04722c	0.12934178
171	0x3e8f158c	0.27946126
172	0xbe85cae9	-0.2613137
173	0xbda3a2a7	-0.07990008
174	0xbc685ec1	-0.014182747
175	0xbe67e021	-0.22644092
176	0xbeb91179	-0.36146143
177	0xbea31590	-0.31852388
178	0x3e3ed9bf	0.18637751
179	0xbe170f3d	-0.14751907
180	0x3d3e97d9	0.046531532
181	0xbd2d53bd	-0.042316187
182	0x3d81a759	0.06330747
183	0xbeb97edb	-0.36229596
184	0xbdf7bae3	-0.12096193
185	0x3e77630f	0.24158882
186	0xbe95ccbe	-0.29257768
187	0x3cff8776	0.031192522
188	0xbda350cb	-0.079743944
189	0x3d93e9b5	0.072223105
190	0x3e80ae68	0.2513306
191	0x3e8f4bd8	0.27987552
192	0xbe19f8a6	-0.15036258
193	0xbe534c46	-0.20634565
194	0xbdc50657	-0.0962035
195	0xbe4dedc3	-0.2011023
196	0x3d95eefe	0.07320975
197	0xbe48034f	-0.19532512
198	0xbe647d28	-0.22313368
199	0xbe9e0add	-0.30867663
200	0x3e6b7db0	0.22997165
201	0xbda0fba0	-0.07860494
202	0x3db6a63f	0.08918428
203	0xbded1daf	-0.11577927
204	0x3d8b1524	0.06791142
205	0x3e8874ee	0.2665171
206	0xbea1293f	-0.3147678
207	0x3d93e91b	0.07222196
208	0xbe221541	-0.1582842
209	0xbe7a39e5	-0.24436148
210	0xbe60043d	-0.21876617
211	0x3ea9cd9e	0.33164686
212	0xbe82f2bd	-0.2557582
213	0xbea06d63	-0.31333455
214	0x3e469ff2	0.19396952
215	0x3e84eb19	0.25960615
216	0xbc7ab6ca	-0.015302369
217	0x3d63914d	0.05555849
218	0x3ea02842	0.31280714
219	0xbe060899	-0.13089217
220	0x3de61c02	0.11235811
221	0xbe20f091	-0.15716769
222	0xbd40ac3c	-0.047039255
223	0x3e168344	0.14698511
224	0xbdd0305b	-0.10165473
225	0x3e149d23	0.14513068
226	0xbd951fc7	-0.07281452
227	0xbe04cfa8	-0.1296984
228	0x3df0f642	0.1176572
229	0x3dae578c	0.08512792
230	0x3e978b1f	0.29598328
231	0x3e3cba6d	0.18430491
232	0xbe8c1d78	-0.27366233
233	0x3e53e076	0.20691094
234	0xbb0ffd25	-0.0021970954
235	0xbc238d02	-0.009982349
236	0xbdfc83c7	-0.12329822
237	0xbcb7c1c0	-0.022431254
238	0xbe15794d	-0.14597054
239	0x3df6d670	0.120526195
240	0xbe9ec066	-0.31006163
241	0x3e0d111d	0.1377606
242	0xbdec5650	-0.115399
243	0x3e81ad2a	0.25327426
244	0xbe0258fe	-0.1272926
245	0xbea22d56	-0.31675214
246	0xbdc49a1a	-0.09599705
247	0xbe1ae979	-0.15128125
248	0x3e517bab	0.20457332
249	0xbcd99445	-0.026559958
250	0xbdedc066	-0.11608963
251	0x3ea97230	0.3309493
252	0xbe281278	-0.16413295
253	0x3d44fc72	0.048092313
254	0x3e488a0d	0.19583912
255	0xbe801cdc	-0.25022018

tgcn_cell.graph_conv_h.bias f4 [64]
0	0x3a7c70ce	0.00096298463
1	0xbdd26e9d	-0.10275004
2	0xbd85f734	-0.06541291
3	0xbb0a1a28	-0.002107272
4	0xbb8af970	-0.004241161
5	0x3ce7663f	0.028246997
6	0x3cf7b361	0.030236902
7	0x3c42903d	0.011875209
8	0x3ca1b274	0.019738413
9	0xbcea191f	-0.028576432
10	0x3c375ca4	0.011191521
11	0x3c006b3a	0.007838065
12	0xbc61dd3b	-0.013785656
13	0x3a423f1c	0.0007409917
14	0xbd3fb1fe	-0.046800606
15	0xbd5f628d	-0.054537345
16	0x3cb724c3	0.022356397
17	0xbd6e5da2	-0.058194764
18	0xbc9792b8	-0.018502578
19	0xbc5bbf31	-0.013412283
20	0x3b9b35ce	0.0047366386
21	0x3c4f04e3	0.012635442
22	0x3d76291d	0.060097802
23	0x3d88d979	0.066821046
24	0x3cb11598	0.021616742
25	0xbc7d1b4c	-0.015448403
26	0x3cbc5821	0.022991242
27	0xbd0fbce3	-0.035092246
28	0xbc1973df	-0.009366005
29	0x3d18d627	0.037313607
30	0xbcea749b	-0.028620055
31	0x3cb7185a	0.022350479
32	0x3de28832	0.110611334
33	0xbad9ee10	-0.0016626734
34	0x3cd0d74e	0.02549329
35	0x3b241689	0.0025037846
36	0xbc29801a	-0.010345483
37	0x3e404f43	0.18780236
38	0xbc58dc29	-0.013236084
39	0x3cdc3e2e	0.026885118
40	0x3ddb7c95	0.107171215
41	0xbc83c03f	-0.016082881
42	0xbba8f323	-0.0051559373
43	0x3cb4939c	0.022043042
44	0x3cb979b8	0.022641048
45	0xbb3fa067	-0.0029239894
46	0x3c4fbac2	0.012678804
47	0x3c2f58b4	0.010702301
48	0xbd394f22	-0.045241483
49	0xbda8763d	-0.08225677
50	0xbd59b336	-0.053149424
51	0xbca12c51	-0.019674452
52	0xbc846db0	-0.016165584
53	0xbbca1fc0	-0.0061683357
54	0x3d307507	0.043080356
55	0x3c7d2f54	0.015453178
56	0x3b5ae768	0.003340209
57	0xbca0658e	-0.019579675
58	0x3a571f34	0.0008206249
59	0x3d8084dd	0.06275342
60	0xbc51a22b	-0.0127950115
61	0x3b0e04dc	0.0021670377
62	0x3b1de43d	0.002409234
63	0xbbd98c4d	-0.0066390396

fc.weight f4 [1, 64]
0	0x3d1be087	0.038055923
1	0xbd893e0a	-0.06701286
2	0xbcc47570	-0.02398178
3	0x3ce9a7d0	0.028522402
4	0x3e240764	0.16018444
5	0xbd2668ed	-0.04062741
6	0x3d8ab075	0.06771938
7	0xbdc8bc76	-0.09801571
8	0xbdd13cf6	-0.102167055
9	0xbaa9c073	-0.0012951031
10	0xbe066d92	-0.13127735
11	0x3dbdb4f5	0.092630304
12	0x3cecc916	0.028904479
13	0x3bde0acd	0.00677619
14	0xbd1ab6d3	-0.03777201
15	0xbd94b47e	-0.07260989
16	0x3cf8840e	0.030336406
17	0x3d477dd3	0.04870398
18	0x3e197586	0.14986238
19	0x3cd0e2ed	0.025498832
20	0xbd0aa067	-0.033844378
21	0xbc3481b6	-0.011017254
22	0x3d779ba3	0.06045116
23	0x3d25991c	0.04042922
24	0x3d1d24b8	0.038365096
25	0xbe132ae3	-0.14371829
26	0x3db33261	0.087498434
27	0xbe049586	-0.12947664
28	0xbd9e1104	-0.07718089
29	0x3e3fc5b8	0.18727767
30	0xbdeafbeb	-0.11473831
31	0x3cbd606a	0.023117263
32	0x3e343c54	0.17601138
33	0x3e4ade8e	0.1981146
34	0xbd7228af	-0.05912083
35	0x3e21b18e	0.15790388
36	0x3ddda91a	0.10823269
37	0x3d3c4b9d	0.045970548
38	0x3d999d56	0.075007126
39	0xbd4aa8f3	-0.04947753
40	0x3d4cfed0	0.050047696
41	0xbd210297	-0.03930911
42	0xbd8f5fb7	-0.07000678
43	0xbd1c1914	-0.038109854
44	0x3e84616a	0.2585557
45	0xbd8071a4	-0.06271675
46	0xbdafb2ad	-0.085790016
47	0xbe032562	-0.12807229
48	0xbdef0170	-0.11670196
49	0xbd8b3b7c	-0.06798455
50	0x3dfb830a	0.12280853
51	0x3d5e6224	0.054292813
52	0x3bbe57b3	0.0058087944
53	0xbd8c80b3	-0.06860485
54	0x3e0cc582	0.13747218
55	0xbdd1c0a5	-0.10241822
56	0x3dbaf443	0.091286205
57	0x3e14eaf2	0.1454275
58	0xbe43a82c	-0.19107121
59	0x3dec9d32	0.1155342
60	0xbe16bd44	-0.14720637
61	0xbe2ea45a	-0.17054883
62	0x3e2c2e5c	0.1681456
63	0x3dbed962	0.09318806
